…
[INFO|configuration_utils.py:561] 2023-11-15 21:16:06,095 >> loading configuration file generation_config.json from cache at /home/lanxiang/.cache/huggingface/hub/models--baffo32--decapoda-research-llama-7B-hf/snapshots/aa18b48a1330572a6dd5f5d5619ed19838ca285c/generation_config.json
[INFO|configuration_utils.py:599] 2023-11-15 21:16:06,095 >> Generate config GenerationConfig {
  "_from_model_config": true,
  "bos_token_id": 0,
  "eos_token_id": 1,
  "pad_token_id": 0,
  "transformers_version": "4.31.0"
}

11/15/2023 21:16:06 - INFO - __main__ - LlamaForCausalLM(
  (model): LlamaModel(
    (embed_tokens): Embedding(32000, 4096, padding_idx=31999)
    (layers): ModuleList(
      (0): LlamaDecoderLayer(
        (self_attn): LlamaAttention(
          (q_proj): Linear(in_features=4096, out_features=4096, bias=False)
          (k_proj): Linear(in_features=4096, out_features=4096, bias=False)
          (v_proj): Linear(in_features=4096, out_features=4096, bias=False)
          (o_proj): Linear(in_features=4096, out_features=4096, bias=False)
          (rotary_emb): LlamaRotaryEmbedding()
        )
        (mlp): LlamaMLP(
          (gate_proj): Linear(in_features=4096, out_features=11008, bias=False)
          (up_proj): Linear(in_features=4096, out_features=11008, bias=False)
          (down_proj): Linear(in_features=11008, out_features=4096, bias=False)
          (act_fn): SiLUActivation()
        )
        (input_layernorm): LlamaRMSNorm()
        (post_attention_layernorm): LlamaRMSNorm()
      )
      (1): LlamaDecoderLayer(
        (self_attn): LlamaAttention(
          (q_proj): Linear(in_features=4096, out_features=4096, bias=False)
          (k_proj): Linear(in_features=4096, out_features=4096, bias=False)
          (v_proj): Linear(in_features=4096, out_features=4096, bias=False)
          (o_proj): Linear(in_features=4096, out_features=4096, bias=False)
          (rotary_emb): LlamaRotaryEmbedding()
        )
        (mlp): LlamaMLP(
          (gate_proj): Linear(in_features=4096, out_features=11008, bias=False)
          (up_proj): Linear(in_features=4096, out_features=11008, bias=False)
          (down_proj): Linear(in_features=11008, out_features=4096, bias=False)
          (act_fn): SiLUActivation()
        )
        (input_layernorm): LlamaRMSNorm()
        (post_attention_layernorm): LlamaRMSNorm()
      )
      (2): LlamaDecoderLayer(
        (self_attn): LlamaAttention(
          (q_proj): Linear(in_features=4096, out_features=4096, bias=False)
          (k_proj): Linear(in_features=4096, out_features=4096, bias=False)
          (v_proj): Linear(in_features=4096, out_features=4096, bias=False)
          (o_proj): Linear(in_features=4096, out_features=4096, bias=False)
          (rotary_emb): LlamaRotaryEmbedding()
        )
        (mlp): LlamaMLP(
          (gate_proj): Linear(in_features=4096, out_features=11008, bias=False)
          (up_proj): Linear(in_features=4096, out_features=11008, bias=False)
          (down_proj): Linear(in_features=11008, out_features=4096, bias=False)
          (act_fn): SiLUActivation()
        )
        (input_layernorm): LlamaRMSNorm()
        (post_attention_layernorm): LlamaRMSNorm()
      )
      (3): LlamaDecoderLayer(
        (self_attn): LlamaAttention(
          (q_proj): Linear(in_features=4096, out_features=4096, bias=False)
          (k_proj): Linear(in_features=4096, out_features=4096, bias=False)
          (v_proj): Linear(in_features=4096, out_features=4096, bias=False)
          (o_proj): Linear(in_features=4096, out_features=4096, bias=False)
          (rotary_emb): LlamaRotaryEmbedding()
        )
        (mlp): LlamaMLP(
          (gate_proj): Linear(in_features=4096, out_features=11008, bias=False)
          (up_proj): Linear(in_features=4096, out_features=11008, bias=False)
          (down_proj): Linear(in_features=11008, out_features=4096, bias=False)
          (act_fn): SiLUActivation()
        )
        (input_layernorm): LlamaRMSNorm()
        (post_attention_layernorm): LlamaRMSNorm()
      )
      (4): LlamaDecoderLayer(
        (self_attn): LlamaAttention(
          (q_proj): Linear(in_features=4096, out_features=4096, bias=False)
          (k_proj): Linear(in_features=4096, out_features=4096, bias=False)
          (v_proj): Linear(in_features=4096, out_features=4096, bias=False)
          (o_proj): Linear(in_features=4096, out_features=4096, bias=False)
          (rotary_emb): LlamaRotaryEmbedding()
        )
        (mlp): LlamaMLP(
          (gate_proj): Linear(in_features=4096, out_features=11008, bias=False)
          (up_proj): Linear(in_features=4096, out_features=11008, bias=False)
          (down_proj): Linear(in_features=11008, out_features=4096, bias=False)
          (act_fn): SiLUActivation()
        )
        (input_layernorm): LlamaRMSNorm()
        (post_attention_layernorm): LlamaRMSNorm()
      )
      (5): LlamaDecoderLayer(
        (self_attn): LlamaAttention(
          (q_proj): Linear(in_features=4096, out_features=4096, bias=False)
          (k_proj): Linear(in_features=4096, out_features=4096, bias=False)
          (v_proj): Linear(in_features=4096, out_features=4096, bias=False)
          (o_proj): Linear(in_features=4096, out_features=4096, bias=False)
          (rotary_emb): LlamaRotaryEmbedding()
        )
        (mlp): LlamaMLP(
          (gate_proj): Linear(in_features=4096, out_features=11008, bias=False)
          (up_proj): Linear(in_features=4096, out_features=11008, bias=False)
          (down_proj): Linear(in_features=11008, out_features=4096, bias=False)
          (act_fn): SiLUActivation()
        )
        (input_layernorm): LlamaRMSNorm()
        (post_attention_layernorm): LlamaRMSNorm()
      )
      (6): LlamaDecoderLayer(
        (self_attn): LlamaAttention(
          (q_proj): Linear(in_features=4096, out_features=4096, bias=False)
          (k_proj): Linear(in_features=4096, out_features=4096, bias=False)
          (v_proj): Linear(in_features=4096, out_features=4096, bias=False)
          (o_proj): Linear(in_features=4096, out_features=4096, bias=False)
          (rotary_emb): LlamaRotaryEmbedding()
        )
        (mlp): LlamaMLP(
          (gate_proj): Linear(in_features=4096, out_features=11008, bias=False)
          (up_proj): Linear(in_features=4096, out_features=11008, bias=False)
          (down_proj): Linear(in_features=11008, out_features=4096, bias=False)
          (act_fn): SiLUActivation()
        )
        (input_layernorm): LlamaRMSNorm()
        (post_attention_layernorm): LlamaRMSNorm()
      )
      (7): LlamaDecoderLayer(
        (self_attn): LlamaAttention(
          (q_proj): Linear(in_features=4096, out_features=4096, bias=False)
          (k_proj): Linear(in_features=4096, out_features=4096, bias=False)
          (v_proj): Linear(in_features=4096, out_features=4096, bias=False)
          (o_proj): Linear(in_features=4096, out_features=4096, bias=False)
          (rotary_emb): LlamaRotaryEmbedding()
        )
        (mlp): LlamaMLP(
          (gate_proj): Linear(in_features=4096, out_features=11008, bias=False)
          (up_proj): Linear(in_features=4096, out_features=11008, bias=False)
          (down_proj): Linear(in_features=11008, out_features=4096, bias=False)
          (act_fn): SiLUActivation()
        )
        (input_layernorm): LlamaRMSNorm()
        (post_attention_layernorm): LlamaRMSNorm()
      )
      (8): LlamaDecoderLayer(
        (self_attn): LlamaAttention(
          (q_proj): Linear(in_features=4096, out_features=4096, bias=False)
          (k_proj): Linear(in_features=4096, out_features=4096, bias=False)
          (v_proj): Linear(in_features=4096, out_features=4096, bias=False)
          (o_proj): Linear(in_features=4096, out_features=4096, bias=False)
          (rotary_emb): LlamaRotaryEmbedding()
        )
        (mlp): LlamaMLP(
          (gate_proj): Linear(in_features=4096, out_features=11008, bias=False)
          (up_proj): Linear(in_features=4096, out_features=11008, bias=False)
          (down_proj): Linear(in_features=11008, out_features=4096, bias=False)
          (act_fn): SiLUActivation()
        )
        (input_layernorm): LlamaRMSNorm()
        (post_attention_layernorm): LlamaRMSNorm()
      )
      (9): LlamaDecoderLayer(
        (self_attn): LlamaAttention(
          (q_proj): Linear(in_features=4096, out_features=4096, bias=False)
          (k_proj): Linear(in_features=4096, out_features=4096, bias=False)
          (v_proj): Linear(in_features=4096, out_features=4096, bias=False)
          (o_proj): Linear(in_features=4096, out_features=4096, bias=False)
          (rotary_emb): LlamaRotaryEmbedding()
        )
        (mlp): LlamaMLP(
          (gate_proj): Linear(in_features=4096, out_features=11008, bias=False)
          (up_proj): Linear(in_features=4096, out_features=11008, bias=False)
          (down_proj): Linear(in_features=11008, out_features=4096, bias=False)
          (act_fn): SiLUActivation()
        )
        (input_layernorm): LlamaRMSNorm()
        (post_attention_layernorm): LlamaRMSNorm()
      )
      (10): LlamaDecoderLayer(
        (self_attn): LlamaAttention(
          (q_proj): Linear(in_features=4096, out_features=4096, bias=False)
          (k_proj): Linear(in_features=4096, out_features=4096, bias=False)
          (v_proj): Linear(in_features=4096, out_features=4096, bias=False)
          (o_proj): Linear(in_features=4096, out_features=4096, bias=False)
          (rotary_emb): LlamaRotaryEmbedding()
        )
        (mlp): LlamaMLP(
          (gate_proj): Linear(in_features=4096, out_features=11008, bias=False)
          (up_proj): Linear(in_features=4096, out_features=11008, bias=False)
          (down_proj): Linear(in_features=11008, out_features=4096, bias=False)
          (act_fn): SiLUActivation()
        )
        (input_layernorm): LlamaRMSNorm()
        (post_attention_layernorm): LlamaRMSNorm()
      )
      (11): LlamaDecoderLayer(
        (self_attn): LlamaAttention(
          (q_proj): Linear(in_features=4096, out_features=4096, bias=False)
          (k_proj): Linear(in_features=4096, out_features=4096, bias=False)
          (v_proj): Linear(in_features=4096, out_features=4096, bias=False)
          (o_proj): Linear(in_features=4096, out_features=4096, bias=False)
          (rotary_emb): LlamaRotaryEmbedding()
        )
        (mlp): LlamaMLP(
          (gate_proj): Linear(in_features=4096, out_features=11008, bias=False)
          (up_proj): Linear(in_features=4096, out_features=11008, bias=False)
          (down_proj): Linear(in_features=11008, out_features=4096, bias=False)
          (act_fn): SiLUActivation()
        )
        (input_layernorm): LlamaRMSNorm()
        (post_attention_layernorm): LlamaRMSNorm()
      )
      (12): LlamaDecoderLayer(
        (self_attn): LlamaAttention(
          (q_proj): Linear(in_features=4096, out_features=4096, bias=False)
          (k_proj): Linear(in_features=4096, out_features=4096, bias=False)
          (v_proj): Linear(in_features=4096, out_features=4096, bias=False)
          (o_proj): Linear(in_features=4096, out_features=4096, bias=False)
          (rotary_emb): LlamaRotaryEmbedding()
        )
        (mlp): LlamaMLP(
          (gate_proj): Linear(in_features=4096, out_features=11008, bias=False)
          (up_proj): Linear(in_features=4096, out_features=11008, bias=False)
          (down_proj): Linear(in_features=11008, out_features=4096, bias=False)
          (act_fn): SiLUActivation()
        )
        (input_layernorm): LlamaRMSNorm()
        (post_attention_layernorm): LlamaRMSNorm()
      )
      (13): LlamaDecoderLayer(
        (self_attn): LlamaAttention(
          (q_proj): Linear(in_features=4096, out_features=4096, bias=False)
          (k_proj): Linear(in_features=4096, out_features=4096, bias=False)
          (v_proj): Linear(in_features=4096, out_features=4096, bias=False)
          (o_proj): Linear(in_features=4096, out_features=4096, bias=False)
          (rotary_emb): LlamaRotaryEmbedding()
        )
        (mlp): LlamaMLP(
          (gate_proj): Linear(in_features=4096, out_features=11008, bias=False)
          (up_proj): Linear(in_features=4096, out_features=11008, bias=False)
          (down_proj): Linear(in_features=11008, out_features=4096, bias=False)
          (act_fn): SiLUActivation()
        )
        (input_layernorm): LlamaRMSNorm()
        (post_attention_layernorm): LlamaRMSNorm()
      )
      (14): LlamaDecoderLayer(
        (self_attn): LlamaAttention(
          (q_proj): Linear(in_features=4096, out_features=4096, bias=False)
          (k_proj): Linear(in_features=4096, out_features=4096, bias=False)
          (v_proj): Linear(in_features=4096, out_features=4096, bias=False)
          (o_proj): Linear(in_features=4096, out_features=4096, bias=False)
          (rotary_emb): LlamaRotaryEmbedding()
        )
        (mlp): LlamaMLP(
          (gate_proj): Linear(in_features=4096, out_features=11008, bias=False)
          (up_proj): Linear(in_features=4096, out_features=11008, bias=False)
          (down_proj): Linear(in_features=11008, out_features=4096, bias=False)
          (act_fn): SiLUActivation()
        )
        (input_layernorm): LlamaRMSNorm()
        (post_attention_layernorm): LlamaRMSNorm()
      )
      (15): LlamaDecoderLayer(
        (self_attn): LlamaAttention(
          (q_proj): Linear(in_features=4096, out_features=4096, bias=False)
          (k_proj): Linear(in_features=4096, out_features=4096, bias=False)
          (v_proj): Linear(in_features=4096, out_features=4096, bias=False)
          (o_proj): Linear(in_features=4096, out_features=4096, bias=False)
          (rotary_emb): LlamaRotaryEmbedding()
        )
        (mlp): LlamaMLP(
          (gate_proj): Linear(in_features=4096, out_features=11008, bias=False)
          (up_proj): Linear(in_features=4096, out_features=11008, bias=False)
          (down_proj): Linear(in_features=11008, out_features=4096, bias=False)
          (act_fn): SiLUActivation()
        )
        (input_layernorm): LlamaRMSNorm()
        (post_attention_layernorm): LlamaRMSNorm()
      )
      (16): LlamaDecoderLayer(
        (self_attn): LlamaAttention(
          (q_proj): Linear(in_features=4096, out_features=4096, bias=False)
          (k_proj): Linear(in_features=4096, out_features=4096, bias=False)
          (v_proj): Linear(in_features=4096, out_features=4096, bias=False)
          (o_proj): Linear(in_features=4096, out_features=4096, bias=False)
          (rotary_emb): LlamaRotaryEmbedding()
        )
        (mlp): LlamaMLP(
          (gate_proj): Linear(in_features=4096, out_features=11008, bias=False)
          (up_proj): Linear(in_features=4096, out_features=11008, bias=False)
          (down_proj): Linear(in_features=11008, out_features=4096, bias=False)
          (act_fn): SiLUActivation()
        )
        (input_layernorm): LlamaRMSNorm()
        (post_attention_layernorm): LlamaRMSNorm()
      )
      (17): LlamaDecoderLayer(
        (self_attn): LlamaAttention(
          (q_proj): Linear(in_features=4096, out_features=4096, bias=False)
          (k_proj): Linear(in_features=4096, out_features=4096, bias=False)
          (v_proj): Linear(in_features=4096, out_features=4096, bias=False)
          (o_proj): Linear(in_features=4096, out_features=4096, bias=False)
          (rotary_emb): LlamaRotaryEmbedding()
        )
        (mlp): LlamaMLP(
          (gate_proj): Linear(in_features=4096, out_features=11008, bias=False)
          (up_proj): Linear(in_features=4096, out_features=11008, bias=False)
          (down_proj): Linear(in_features=11008, out_features=4096, bias=False)
          (act_fn): SiLUActivation()
        )
        (input_layernorm): LlamaRMSNorm()
        (post_attention_layernorm): LlamaRMSNorm()
      )
      (18): LlamaDecoderLayer(
        (self_attn): LlamaAttention(
          (q_proj): Linear(in_features=4096, out_features=4096, bias=False)
          (k_proj): Linear(in_features=4096, out_features=4096, bias=False)
          (v_proj): Linear(in_features=4096, out_features=4096, bias=False)
          (o_proj): Linear(in_features=4096, out_features=4096, bias=False)
          (rotary_emb): LlamaRotaryEmbedding()
        )
        (mlp): LlamaMLP(
          (gate_proj): Linear(in_features=4096, out_features=11008, bias=False)
          (up_proj): Linear(in_features=4096, out_features=11008, bias=False)
          (down_proj): Linear(in_features=11008, out_features=4096, bias=False)
          (act_fn): SiLUActivation()
        )
        (input_layernorm): LlamaRMSNorm()
        (post_attention_layernorm): LlamaRMSNorm()
      )
      (19): LlamaDecoderLayer(
        (self_attn): LlamaAttention(
          (q_proj): Linear(in_features=4096, out_features=4096, bias=False)
          (k_proj): Linear(in_features=4096, out_features=4096, bias=False)
          (v_proj): Linear(in_features=4096, out_features=4096, bias=False)
          (o_proj): Linear(in_features=4096, out_features=4096, bias=False)
          (rotary_emb): LlamaRotaryEmbedding()
        )
        (mlp): LlamaMLP(
          (gate_proj): Linear(in_features=4096, out_features=11008, bias=False)
          (up_proj): Linear(in_features=4096, out_features=11008, bias=False)
          (down_proj): Linear(in_features=11008, out_features=4096, bias=False)
          (act_fn): SiLUActivation()
        )
        (input_layernorm): LlamaRMSNorm()
        (post_attention_layernorm): LlamaRMSNorm()
      )
      (20): LlamaDecoderLayer(
        (self_attn): LlamaAttention(
          (q_proj): Linear(in_features=4096, out_features=4096, bias=False)
          (k_proj): Linear(in_features=4096, out_features=4096, bias=False)
          (v_proj): Linear(in_features=4096, out_features=4096, bias=False)
          (o_proj): Linear(in_features=4096, out_features=4096, bias=False)
          (rotary_emb): LlamaRotaryEmbedding()
        )
        (mlp): LlamaMLP(
          (gate_proj): Linear(in_features=4096, out_features=11008, bias=False)
          (up_proj): Linear(in_features=4096, out_features=11008, bias=False)
          (down_proj): Linear(in_features=11008, out_features=4096, bias=False)
          (act_fn): SiLUActivation()
        )
        (input_layernorm): LlamaRMSNorm()
        (post_attention_layernorm): LlamaRMSNorm()
      )
      (21): LlamaDecoderLayer(
        (self_attn): LlamaAttention(
          (q_proj): Linear(in_features=4096, out_features=4096, bias=False)
          (k_proj): Linear(in_features=4096, out_features=4096, bias=False)
          (v_proj): Linear(in_features=4096, out_features=4096, bias=False)
          (o_proj): Linear(in_features=4096, out_features=4096, bias=False)
          (rotary_emb): LlamaRotaryEmbedding()
        )
        (mlp): LlamaMLP(
          (gate_proj): Linear(in_features=4096, out_features=11008, bias=False)
          (up_proj): Linear(in_features=4096, out_features=11008, bias=False)
          (down_proj): Linear(in_features=11008, out_features=4096, bias=False)
          (act_fn): SiLUActivation()
        )
        (input_layernorm): LlamaRMSNorm()
        (post_attention_layernorm): LlamaRMSNorm()
      )
      (22): LlamaDecoderLayer(
        (self_attn): LlamaAttention(
          (q_proj): Linear(in_features=4096, out_features=4096, bias=False)
          (k_proj): Linear(in_features=4096, out_features=4096, bias=False)
          (v_proj): Linear(in_features=4096, out_features=4096, bias=False)
          (o_proj): Linear(in_features=4096, out_features=4096, bias=False)
          (rotary_emb): LlamaRotaryEmbedding()
        )
        (mlp): LlamaMLP(
          (gate_proj): Linear(in_features=4096, out_features=11008, bias=False)
          (up_proj): Linear(in_features=4096, out_features=11008, bias=False)
          (down_proj): Linear(in_features=11008, out_features=4096, bias=False)
          (act_fn): SiLUActivation()
        )
        (input_layernorm): LlamaRMSNorm()
        (post_attention_layernorm): LlamaRMSNorm()
      )
      (23): LlamaDecoderLayer(
        (self_attn): LlamaAttention(
          (q_proj): Linear(in_features=4096, out_features=4096, bias=False)
          (k_proj): Linear(in_features=4096, out_features=4096, bias=False)
          (v_proj): Linear(in_features=4096, out_features=4096, bias=False)
          (o_proj): Linear(in_features=4096, out_features=4096, bias=False)
          (rotary_emb): LlamaRotaryEmbedding()
        )
        (mlp): LlamaMLP(
          (gate_proj): Linear(in_features=4096, out_features=11008, bias=False)
          (up_proj): Linear(in_features=4096, out_features=11008, bias=False)
          (down_proj): Linear(in_features=11008, out_features=4096, bias=False)
          (act_fn): SiLUActivation()
        )
        (input_layernorm): LlamaRMSNorm()
        (post_attention_layernorm): LlamaRMSNorm()
      )
      (24): LlamaDecoderLayer(
        (self_attn): LlamaAttention(
          (q_proj): Linear(in_features=4096, out_features=4096, bias=False)
          (k_proj): Linear(in_features=4096, out_features=4096, bias=False)
          (v_proj): Linear(in_features=4096, out_features=4096, bias=False)
          (o_proj): Linear(in_features=4096, out_features=4096, bias=False)
          (rotary_emb): LlamaRotaryEmbedding()
        )
        (mlp): LlamaMLP(
          (gate_proj): Linear(in_features=4096, out_features=11008, bias=False)
          (up_proj): Linear(in_features=4096, out_features=11008, bias=False)
          (down_proj): Linear(in_features=11008, out_features=4096, bias=False)
          (act_fn): SiLUActivation()
        )
        (input_layernorm): LlamaRMSNorm()
        (post_attention_layernorm): LlamaRMSNorm()
      )
      (25): LlamaDecoderLayer(
        (self_attn): LlamaAttention(
          (q_proj): Linear(in_features=4096, out_features=4096, bias=False)
          (k_proj): Linear(in_features=4096, out_features=4096, bias=False)
          (v_proj): Linear(in_features=4096, out_features=4096, bias=False)
          (o_proj): Linear(in_features=4096, out_features=4096, bias=False)
          (rotary_emb): LlamaRotaryEmbedding()
        )
        (mlp): LlamaMLP(
          (gate_proj): Linear(in_features=4096, out_features=11008, bias=False)
          (up_proj): Linear(in_features=4096, out_features=11008, bias=False)
          (down_proj): Linear(in_features=11008, out_features=4096, bias=False)
          (act_fn): SiLUActivation()
        )
        (input_layernorm): LlamaRMSNorm()
        (post_attention_layernorm): LlamaRMSNorm()
      )
      (26): LlamaDecoderLayer(
        (self_attn): LlamaAttention(
          (q_proj): Linear(in_features=4096, out_features=4096, bias=False)
          (k_proj): Linear(in_features=4096, out_features=4096, bias=False)
          (v_proj): Linear(in_features=4096, out_features=4096, bias=False)
          (o_proj): Linear(in_features=4096, out_features=4096, bias=False)
          (rotary_emb): LlamaRotaryEmbedding()
        )
        (mlp): LlamaMLP(
          (gate_proj): Linear(in_features=4096, out_features=11008, bias=False)
          (up_proj): Linear(in_features=4096, out_features=11008, bias=False)
          (down_proj): Linear(in_features=11008, out_features=4096, bias=False)
          (act_fn): SiLUActivation()
        )
        (input_layernorm): LlamaRMSNorm()
        (post_attention_layernorm): LlamaRMSNorm()
      )
      (27): LlamaDecoderLayer(
        (self_attn): LlamaAttention(
          (q_proj): Linear(in_features=4096, out_features=4096, bias=False)
          (k_proj): Linear(in_features=4096, out_features=4096, bias=False)
          (v_proj): Linear(in_features=4096, out_features=4096, bias=False)
          (o_proj): Linear(in_features=4096, out_features=4096, bias=False)
          (rotary_emb): LlamaRotaryEmbedding()
        )
        (mlp): LlamaMLP(
          (gate_proj): Linear(in_features=4096, out_features=11008, bias=False)
          (up_proj): Linear(in_features=4096, out_features=11008, bias=False)
          (down_proj): Linear(in_features=11008, out_features=4096, bias=False)
          (act_fn): SiLUActivation()
        )
        (input_layernorm): LlamaRMSNorm()
        (post_attention_layernorm): LlamaRMSNorm()
      )
      (28): LlamaDecoderLayer(
        (self_attn): LlamaAttention(
          (q_proj): Linear(in_features=4096, out_features=4096, bias=False)
          (k_proj): Linear(in_features=4096, out_features=4096, bias=False)
          (v_proj): Linear(in_features=4096, out_features=4096, bias=False)
          (o_proj): Linear(in_features=4096, out_features=4096, bias=False)
          (rotary_emb): LlamaRotaryEmbedding()
        )
        (mlp): LlamaMLP(
          (gate_proj): Linear(in_features=4096, out_features=11008, bias=False)
          (up_proj): Linear(in_features=4096, out_features=11008, bias=False)
          (down_proj): Linear(in_features=11008, out_features=4096, bias=False)
          (act_fn): SiLUActivation()
        )
        (input_layernorm): LlamaRMSNorm()
        (post_attention_layernorm): LlamaRMSNorm()
      )
      (29): LlamaDecoderLayer(
        (self_attn): LlamaAttention(
          (q_proj): Linear(in_features=4096, out_features=4096, bias=False)
          (k_proj): Linear(in_features=4096, out_features=4096, bias=False)
          (v_proj): Linear(in_features=4096, out_features=4096, bias=False)
          (o_proj): Linear(in_features=4096, out_features=4096, bias=False)
          (rotary_emb): LlamaRotaryEmbedding()
        )
        (mlp): LlamaMLP(
          (gate_proj): Linear(in_features=4096, out_features=11008, bias=False)
          (up_proj): Linear(in_features=4096, out_features=11008, bias=False)
          (down_proj): Linear(in_features=11008, out_features=4096, bias=False)
          (act_fn): SiLUActivation()
        )
        (input_layernorm): LlamaRMSNorm()
        (post_attention_layernorm): LlamaRMSNorm()
      )
      (30): LlamaDecoderLayer(
        (self_attn): LlamaAttention(
          (q_proj): Linear(in_features=4096, out_features=4096, bias=False)
          (k_proj): Linear(in_features=4096, out_features=4096, bias=False)
          (v_proj): Linear(in_features=4096, out_features=4096, bias=False)
          (o_proj): Linear(in_features=4096, out_features=4096, bias=False)
          (rotary_emb): LlamaRotaryEmbedding()
        )
        (mlp): LlamaMLP(
          (gate_proj): Linear(in_features=4096, out_features=11008, bias=False)
          (up_proj): Linear(in_features=4096, out_features=11008, bias=False)
          (down_proj): Linear(in_features=11008, out_features=4096, bias=False)
          (act_fn): SiLUActivation()
        )
        (input_layernorm): LlamaRMSNorm()
        (post_attention_layernorm): LlamaRMSNorm()
      )
      (31): LlamaDecoderLayer(
        (self_attn): LlamaAttention(
          (q_proj): Linear(in_features=4096, out_features=4096, bias=False)
          (k_proj): Linear(in_features=4096, out_features=4096, bias=False)
          (v_proj): Linear(in_features=4096, out_features=4096, bias=False)
          (o_proj): Linear(in_features=4096, out_features=4096, bias=False)
          (rotary_emb): LlamaRotaryEmbedding()
        )
        (mlp): LlamaMLP(
          (gate_proj): Linear(in_features=4096, out_features=11008, bias=False)
          (up_proj): Linear(in_features=4096, out_features=11008, bias=False)
          (down_proj): Linear(in_features=11008, out_features=4096, bias=False)
          (act_fn): SiLUActivation()
        )
        (input_layernorm): LlamaRMSNorm()
        (post_attention_layernorm): LlamaRMSNorm()
      )
    )
    (norm): LlamaRMSNorm()
  )
  (lm_head): Linear(in_features=4096, out_features=32000, bias=False)
)
11/15/2023 21:16:06 - INFO - __main__ - model.embed_tokens.weight
11/15/2023 21:16:06 - INFO - __main__ - model.layers.0.self_attn.q_proj.weight
11/15/2023 21:16:06 - INFO - __main__ - model.layers.0.self_attn.k_proj.weight
11/15/2023 21:16:06 - INFO - __main__ - model.layers.0.self_attn.v_proj.weight
11/15/2023 21:16:06 - INFO - __main__ - model.layers.0.self_attn.o_proj.weight
…
/home/lanxiang/anaconda3/envs/llm_train/lib/python3.9/site-packages/transformers/optimization.py:411: FutureWarning: This implementation of AdamW is deprecated and will be removed in a future version. Use the PyTorch implementation torch.optim.AdamW instead, or set `no_deprecation_warning=True` to disable this warning
  warnings.warn(
/home/lanxiang/anaconda3/envs/llm_train/lib/python3.9/site-packages/transformers/optimization.py:411: FutureWarning: This implementation of AdamW is deprecated and will be removed in a future version. Use the PyTorch implementation torch.optim.AdamW instead, or set `no_deprecation_warning=True` to disable this warning
  warnings.warn(
FullyShardedDataParallel(
  (_fsdp_wrapped_module): FlattenParamsWrapper(
    (_fpw_module): LlamaForCausalLM(
      (model): LlamaModel(
        (embed_tokens): Embedding(32001, 4096)
        (layers): ModuleList(
          (0): FullyShardedDataParallel(
            (_fsdp_wrapped_module): FlattenParamsWrapper(
              (_fpw_module): LlamaDecoderLayer(
                (self_attn): LlamaAttention(
                  (q_proj): Linear(in_features=4096, out_features=4096, bias=False)
                  (k_proj): Linear(in_features=4096, out_features=4096, bias=False)
                  (v_proj): Linear(in_features=4096, out_features=4096, bias=False)
                  (o_proj): Linear(in_features=4096, out_features=4096, bias=False)
                  (rotary_emb): LlamaRotaryEmbedding()
                )
                (mlp): LlamaMLP(
                  (gate_proj): Linear(in_features=4096, out_features=11008, bias=False)
                  (up_proj): Linear(in_features=4096, out_features=11008, bias=False)
                  (down_proj): Linear(in_features=11008, out_features=4096, bias=False)
                  (act_fn): SiLUActivation()
                )
                (input_layernorm): LlamaRMSNorm()
                (post_attention_layernorm): LlamaRMSNorm()
              )
            )
          )
          (1): FullyShardedDataParallel(
            (_fsdp_wrapped_module): FlattenParamsWrapper(
              (_fpw_module): LlamaDecoderLayer(
                (self_attn): LlamaAttention(
                  (q_proj): Linear(in_features=4096, out_features=4096, bias=False)
                  (k_proj): Linear(in_features=4096, out_features=4096, bias=False)
                  (v_proj): Linear(in_features=4096, out_features=4096, bias=False)
                  (o_proj): Linear(in_features=4096, out_features=4096, bias=False)
                  (rotary_emb): LlamaRotaryEmbedding()
                )
                (mlp): LlamaMLP(
                  (gate_proj): Linear(in_features=4096, out_features=11008, bias=False)
                  (up_proj): Linear(in_features=4096, out_features=11008, bias=False)
                  (down_proj): Linear(in_features=11008, out_features=4096, bias=False)
                  (act_fn): SiLUActivation()
                )
                (input_layernorm): LlamaRMSNorm()
                (post_attention_layernorm): LlamaRMSNorm()
              )
            )
          )
          (2): FullyShardedDataParallel(
            (_fsdp_wrapped_module): FlattenParamsWrapper(
              (_fpw_module): LlamaDecoderLayer(
                (self_attn): LlamaAttention(
                  (q_proj): Linear(in_features=4096, out_features=4096, bias=False)
                  (k_proj): Linear(in_features=4096, out_features=4096, bias=False)
                  (v_proj): Linear(in_features=4096, out_features=4096, bias=False)
                  (o_proj): Linear(in_features=4096, out_features=4096, bias=False)
                  (rotary_emb): LlamaRotaryEmbedding()
                )
                (mlp): LlamaMLP(
                  (gate_proj): Linear(in_features=4096, out_features=11008, bias=False)
                  (up_proj): Linear(in_features=4096, out_features=11008, bias=False)
                  (down_proj): Linear(in_features=11008, out_features=4096, bias=False)
                  (act_fn): SiLUActivation()
                )
                (input_layernorm): LlamaRMSNorm()
                (post_attention_layernorm): LlamaRMSNorm()
              )
            )
          )
          (3): FullyShardedDataParallel(
            (_fsdp_wrapped_module): FlattenParamsWrapper(
              (_fpw_module): LlamaDecoderLayer(
                (self_attn): LlamaAttention(
                  (q_proj): Linear(in_features=4096, out_features=4096, bias=False)
                  (k_proj): Linear(in_features=4096, out_features=4096, bias=False)
                  (v_proj): Linear(in_features=4096, out_features=4096, bias=False)
                  (o_proj): Linear(in_features=4096, out_features=4096, bias=False)
                  (rotary_emb): LlamaRotaryEmbedding()
                )
                (mlp): LlamaMLP(
                  (gate_proj): Linear(in_features=4096, out_features=11008, bias=False)
                  (up_proj): Linear(in_features=4096, out_features=11008, bias=False)
                  (down_proj): Linear(in_features=11008, out_features=4096, bias=False)
                  (act_fn): SiLUActivation()
                )
                (input_layernorm): LlamaRMSNorm()
                (post_attention_layernorm): LlamaRMSNorm()
              )
            )
          )
          (4): FullyShardedDataParallel(
            (_fsdp_wrapped_module): FlattenParamsWrapper(
              (_fpw_module): LlamaDecoderLayer(
                (self_attn): LlamaAttention(
                  (q_proj): Linear(in_features=4096, out_features=4096, bias=False)
                  (k_proj): Linear(in_features=4096, out_features=4096, bias=False)
                  (v_proj): Linear(in_features=4096, out_features=4096, bias=False)
                  (o_proj): Linear(in_features=4096, out_features=4096, bias=False)
                  (rotary_emb): LlamaRotaryEmbedding()
                )
                (mlp): LlamaMLP(
                  (gate_proj): Linear(in_features=4096, out_features=11008, bias=False)
                  (up_proj): Linear(in_features=4096, out_features=11008, bias=False)
                  (down_proj): Linear(in_features=11008, out_features=4096, bias=False)
                  (act_fn): SiLUActivation()
                )
                (input_layernorm): LlamaRMSNorm()
                (post_attention_layernorm): LlamaRMSNorm()
              )
            )
          )
          (5): FullyShardedDataParallel(
            (_fsdp_wrapped_module): FlattenParamsWrapper(
              (_fpw_module): LlamaDecoderLayer(
                (self_attn): LlamaAttention(
                  (q_proj): Linear(in_features=4096, out_features=4096, bias=False)
                  (k_proj): Linear(in_features=4096, out_features=4096, bias=False)
                  (v_proj): Linear(in_features=4096, out_features=4096, bias=False)
                  (o_proj): Linear(in_features=4096, out_features=4096, bias=False)
                  (rotary_emb): LlamaRotaryEmbedding()
                )
                (mlp): LlamaMLP(
                  (gate_proj): Linear(in_features=4096, out_features=11008, bias=False)
                  (up_proj): Linear(in_features=4096, out_features=11008, bias=False)
                  (down_proj): Linear(in_features=11008, out_features=4096, bias=False)
                  (act_fn): SiLUActivation()
                )
                (input_layernorm): LlamaRMSNorm()
                (post_attention_layernorm): LlamaRMSNorm()
              )
            )
          )
          (6): FullyShardedDataParallel(
            (_fsdp_wrapped_module): FlattenParamsWrapper(
              (_fpw_module): LlamaDecoderLayer(
                (self_attn): LlamaAttention(
                  (q_proj): Linear(in_features=4096, out_features=4096, bias=False)
                  (k_proj): Linear(in_features=4096, out_features=4096, bias=False)
                  (v_proj): Linear(in_features=4096, out_features=4096, bias=False)
                  (o_proj): Linear(in_features=4096, out_features=4096, bias=False)
                  (rotary_emb): LlamaRotaryEmbedding()
                )
                (mlp): LlamaMLP(
                  (gate_proj): Linear(in_features=4096, out_features=11008, bias=False)
                  (up_proj): Linear(in_features=4096, out_features=11008, bias=False)
                  (down_proj): Linear(in_features=11008, out_features=4096, bias=False)
                  (act_fn): SiLUActivation()
                )
                (input_layernorm): LlamaRMSNorm()
                (post_attention_layernorm): LlamaRMSNorm()
              )
            )
          )
          (7): FullyShardedDataParallel(
            (_fsdp_wrapped_module): FlattenParamsWrapper(
              (_fpw_module): LlamaDecoderLayer(
                (self_attn): LlamaAttention(
                  (q_proj): Linear(in_features=4096, out_features=4096, bias=False)
                  (k_proj): Linear(in_features=4096, out_features=4096, bias=False)
                  (v_proj): Linear(in_features=4096, out_features=4096, bias=False)
                  (o_proj): Linear(in_features=4096, out_features=4096, bias=False)
                  (rotary_emb): LlamaRotaryEmbedding()
                )
                (mlp): LlamaMLP(
                  (gate_proj): Linear(in_features=4096, out_features=11008, bias=False)
                  (up_proj): Linear(in_features=4096, out_features=11008, bias=False)
                  (down_proj): Linear(in_features=11008, out_features=4096, bias=False)
                  (act_fn): SiLUActivation()
                )
                (input_layernorm): LlamaRMSNorm()
                (post_attention_layernorm): LlamaRMSNorm()
              )
            )
          )
          (8): FullyShardedDataParallel(
            (_fsdp_wrapped_module): FlattenParamsWrapper(
              (_fpw_module): LlamaDecoderLayer(
                (self_attn): LlamaAttention(
                  (q_proj): Linear(in_features=4096, out_features=4096, bias=False)
                  (k_proj): Linear(in_features=4096, out_features=4096, bias=False)
                  (v_proj): Linear(in_features=4096, out_features=4096, bias=False)
                  (o_proj): Linear(in_features=4096, out_features=4096, bias=False)
                  (rotary_emb): LlamaRotaryEmbedding()
                )
                (mlp): LlamaMLP(
                  (gate_proj): Linear(in_features=4096, out_features=11008, bias=False)
                  (up_proj): Linear(in_features=4096, out_features=11008, bias=False)
                  (down_proj): Linear(in_features=11008, out_features=4096, bias=False)
                  (act_fn): SiLUActivation()
                )
                (input_layernorm): LlamaRMSNorm()
                (post_attention_layernorm): LlamaRMSNorm()
              )
            )
          )
          (9): FullyShardedDataParallel(
            (_fsdp_wrapped_module): FlattenParamsWrapper(
              (_fpw_module): LlamaDecoderLayer(
                (self_attn): LlamaAttention(
                  (q_proj): Linear(in_features=4096, out_features=4096, bias=False)
                  (k_proj): Linear(in_features=4096, out_features=4096, bias=False)
                  (v_proj): Linear(in_features=4096, out_features=4096, bias=False)
                  (o_proj): Linear(in_features=4096, out_features=4096, bias=False)
                  (rotary_emb): LlamaRotaryEmbedding()
                )
                (mlp): LlamaMLP(
                  (gate_proj): Linear(in_features=4096, out_features=11008, bias=False)
                  (up_proj): Linear(in_features=4096, out_features=11008, bias=False)
                  (down_proj): Linear(in_features=11008, out_features=4096, bias=False)
                  (act_fn): SiLUActivation()
                )
                (input_layernorm): LlamaRMSNorm()
                (post_attention_layernorm): LlamaRMSNorm()
              )
            )
          )
          (10): FullyShardedDataParallel(
            (_fsdp_wrapped_module): FlattenParamsWrapper(
              (_fpw_module): LlamaDecoderLayer(
                (self_attn): LlamaAttention(
                  (q_proj): Linear(in_features=4096, out_features=4096, bias=False)
                  (k_proj): Linear(in_features=4096, out_features=4096, bias=False)
                  (v_proj): Linear(in_features=4096, out_features=4096, bias=False)
                  (o_proj): Linear(in_features=4096, out_features=4096, bias=False)
                  (rotary_emb): LlamaRotaryEmbedding()
                )
                (mlp): LlamaMLP(
                  (gate_proj): Linear(in_features=4096, out_features=11008, bias=False)
                  (up_proj): Linear(in_features=4096, out_features=11008, bias=False)
                  (down_proj): Linear(in_features=11008, out_features=4096, bias=False)
                  (act_fn): SiLUActivation()
                )
                (input_layernorm): LlamaRMSNorm()
                (post_attention_layernorm): LlamaRMSNorm()
              )
            )
          )
          (11): FullyShardedDataParallel(
            (_fsdp_wrapped_module): FlattenParamsWrapper(
              (_fpw_module): LlamaDecoderLayer(
                (self_attn): LlamaAttention(
                  (q_proj): Linear(in_features=4096, out_features=4096, bias=False)
                  (k_proj): Linear(in_features=4096, out_features=4096, bias=False)
                  (v_proj): Linear(in_features=4096, out_features=4096, bias=False)
                  (o_proj): Linear(in_features=4096, out_features=4096, bias=False)
                  (rotary_emb): LlamaRotaryEmbedding()
                )
                (mlp): LlamaMLP(
                  (gate_proj): Linear(in_features=4096, out_features=11008, bias=False)
                  (up_proj): Linear(in_features=4096, out_features=11008, bias=False)
                  (down_proj): Linear(in_features=11008, out_features=4096, bias=False)
                  (act_fn): SiLUActivation()
                )
                (input_layernorm): LlamaRMSNorm()
                (post_attention_layernorm): LlamaRMSNorm()
              )
            )
          )
          (12): FullyShardedDataParallel(
            (_fsdp_wrapped_module): FlattenParamsWrapper(
              (_fpw_module): LlamaDecoderLayer(
                (self_attn): LlamaAttention(
                  (q_proj): Linear(in_features=4096, out_features=4096, bias=False)
                  (k_proj): Linear(in_features=4096, out_features=4096, bias=False)
                  (v_proj): Linear(in_features=4096, out_features=4096, bias=False)
                  (o_proj): Linear(in_features=4096, out_features=4096, bias=False)
                  (rotary_emb): LlamaRotaryEmbedding()
                )
                (mlp): LlamaMLP(
                  (gate_proj): Linear(in_features=4096, out_features=11008, bias=False)
                  (up_proj): Linear(in_features=4096, out_features=11008, bias=False)
                  (down_proj): Linear(in_features=11008, out_features=4096, bias=False)
                  (act_fn): SiLUActivation()
                )
                (input_layernorm): LlamaRMSNorm()
                (post_attention_layernorm): LlamaRMSNorm()
              )
            )
          )
          (13): FullyShardedDataParallel(
            (_fsdp_wrapped_module): FlattenParamsWrapper(
              (_fpw_module): LlamaDecoderLayer(
                (self_attn): LlamaAttention(
                  (q_proj): Linear(in_features=4096, out_features=4096, bias=False)
                  (k_proj): Linear(in_features=4096, out_features=4096, bias=False)
                  (v_proj): Linear(in_features=4096, out_features=4096, bias=False)
                  (o_proj): Linear(in_features=4096, out_features=4096, bias=False)
                  (rotary_emb): LlamaRotaryEmbedding()
                )
                (mlp): LlamaMLP(
                  (gate_proj): Linear(in_features=4096, out_features=11008, bias=False)
                  (up_proj): Linear(in_features=4096, out_features=11008, bias=False)
                  (down_proj): Linear(in_features=11008, out_features=4096, bias=False)
                  (act_fn): SiLUActivation()
                )
                (input_layernorm): LlamaRMSNorm()
                (post_attention_layernorm): LlamaRMSNorm()
              )
            )
          )
          (14): FullyShardedDataParallel(
            (_fsdp_wrapped_module): FlattenParamsWrapper(
              (_fpw_module): LlamaDecoderLayer(
                (self_attn): LlamaAttention(
                  (q_proj): Linear(in_features=4096, out_features=4096, bias=False)
                  (k_proj): Linear(in_features=4096, out_features=4096, bias=False)
                  (v_proj): Linear(in_features=4096, out_features=4096, bias=False)
                  (o_proj): Linear(in_features=4096, out_features=4096, bias=False)
                  (rotary_emb): LlamaRotaryEmbedding()
                )
                (mlp): LlamaMLP(
                  (gate_proj): Linear(in_features=4096, out_features=11008, bias=False)
                  (up_proj): Linear(in_features=4096, out_features=11008, bias=False)
                  (down_proj): Linear(in_features=11008, out_features=4096, bias=False)
                  (act_fn): SiLUActivation()
                )
                (input_layernorm): LlamaRMSNorm()
                (post_attention_layernorm): LlamaRMSNorm()
              )
            )
          )
          (15): FullyShardedDataParallel(
            (_fsdp_wrapped_module): FlattenParamsWrapper(
              (_fpw_module): LlamaDecoderLayer(
                (self_attn): LlamaAttention(
                  (q_proj): Linear(in_features=4096, out_features=4096, bias=False)
                  (k_proj): Linear(in_features=4096, out_features=4096, bias=False)
                  (v_proj): Linear(in_features=4096, out_features=4096, bias=False)
                  (o_proj): Linear(in_features=4096, out_features=4096, bias=False)
                  (rotary_emb): LlamaRotaryEmbedding()
                )
                (mlp): LlamaMLP(
                  (gate_proj): Linear(in_features=4096, out_features=11008, bias=False)
                  (up_proj): Linear(in_features=4096, out_features=11008, bias=False)
                  (down_proj): Linear(in_features=11008, out_features=4096, bias=False)
                  (act_fn): SiLUActivation()
                )
                (input_layernorm): LlamaRMSNorm()
                (post_attention_layernorm): LlamaRMSNorm()
              )
            )
          )
          (16): FullyShardedDataParallel(
            (_fsdp_wrapped_module): FlattenParamsWrapper(
              (_fpw_module): LlamaDecoderLayer(
                (self_attn): LlamaAttention(
                  (q_proj): Linear(in_features=4096, out_features=4096, bias=False)
                  (k_proj): Linear(in_features=4096, out_features=4096, bias=False)
                  (v_proj): Linear(in_features=4096, out_features=4096, bias=False)
                  (o_proj): Linear(in_features=4096, out_features=4096, bias=False)
                  (rotary_emb): LlamaRotaryEmbedding()
                )
                (mlp): LlamaMLP(
                  (gate_proj): Linear(in_features=4096, out_features=11008, bias=False)
                  (up_proj): Linear(in_features=4096, out_features=11008, bias=False)
                  (down_proj): Linear(in_features=11008, out_features=4096, bias=False)
                  (act_fn): SiLUActivation()
                )
                (input_layernorm): LlamaRMSNorm()
                (post_attention_layernorm): LlamaRMSNorm()
              )
            )
          )
          (17): FullyShardedDataParallel(
            (_fsdp_wrapped_module): FlattenParamsWrapper(
              (_fpw_module): LlamaDecoderLayer(
                (self_attn): LlamaAttention(
                  (q_proj): Linear(in_features=4096, out_features=4096, bias=False)
                  (k_proj): Linear(in_features=4096, out_features=4096, bias=False)
                  (v_proj): Linear(in_features=4096, out_features=4096, bias=False)
                  (o_proj): Linear(in_features=4096, out_features=4096, bias=False)
                  (rotary_emb): LlamaRotaryEmbedding()
                )
                (mlp): LlamaMLP(
                  (gate_proj): Linear(in_features=4096, out_features=11008, bias=False)
                  (up_proj): Linear(in_features=4096, out_features=11008, bias=False)
                  (down_proj): Linear(in_features=11008, out_features=4096, bias=False)
                  (act_fn): SiLUActivation()
                )
                (input_layernorm): LlamaRMSNorm()
                (post_attention_layernorm): LlamaRMSNorm()
              )
            )
          )
          (18): FullyShardedDataParallel(
            (_fsdp_wrapped_module): FlattenParamsWrapper(
              (_fpw_module): LlamaDecoderLayer(
                (self_attn): LlamaAttention(
                  (q_proj): Linear(in_features=4096, out_features=4096, bias=False)
                  (k_proj): Linear(in_features=4096, out_features=4096, bias=False)
                  (v_proj): Linear(in_features=4096, out_features=4096, bias=False)
                  (o_proj): Linear(in_features=4096, out_features=4096, bias=False)
                  (rotary_emb): LlamaRotaryEmbedding()
                )
                (mlp): LlamaMLP(
                  (gate_proj): Linear(in_features=4096, out_features=11008, bias=False)
                  (up_proj): Linear(in_features=4096, out_features=11008, bias=False)
                  (down_proj): Linear(in_features=11008, out_features=4096, bias=False)
                  (act_fn): SiLUActivation()
                )
                (input_layernorm): LlamaRMSNorm()
                (post_attention_layernorm): LlamaRMSNorm()
              )
            )
          )
          (19): FullyShardedDataParallel(
            (_fsdp_wrapped_module): FlattenParamsWrapper(
              (_fpw_module): LlamaDecoderLayer(
                (self_attn): LlamaAttention(
                  (q_proj): Linear(in_features=4096, out_features=4096, bias=False)
                  (k_proj): Linear(in_features=4096, out_features=4096, bias=False)
                  (v_proj): Linear(in_features=4096, out_features=4096, bias=False)
                  (o_proj): Linear(in_features=4096, out_features=4096, bias=False)
                  (rotary_emb): LlamaRotaryEmbedding()
                )
                (mlp): LlamaMLP(
                  (gate_proj): Linear(in_features=4096, out_features=11008, bias=False)
                  (up_proj): Linear(in_features=4096, out_features=11008, bias=False)
                  (down_proj): Linear(in_features=11008, out_features=4096, bias=False)
                  (act_fn): SiLUActivation()
                )
                (input_layernorm): LlamaRMSNorm()
                (post_attention_layernorm): LlamaRMSNorm()
              )
            )
          )
          (20): FullyShardedDataParallel(
            (_fsdp_wrapped_module): FlattenParamsWrapper(
              (_fpw_module): LlamaDecoderLayer(
                (self_attn): LlamaAttention(
                  (q_proj): Linear(in_features=4096, out_features=4096, bias=False)
                  (k_proj): Linear(in_features=4096, out_features=4096, bias=False)
                  (v_proj): Linear(in_features=4096, out_features=4096, bias=False)
                  (o_proj): Linear(in_features=4096, out_features=4096, bias=False)
                  (rotary_emb): LlamaRotaryEmbedding()
                )
                (mlp): LlamaMLP(
                  (gate_proj): Linear(in_features=4096, out_features=11008, bias=False)
                  (up_proj): Linear(in_features=4096, out_features=11008, bias=False)
                  (down_proj): Linear(in_features=11008, out_features=4096, bias=False)
                  (act_fn): SiLUActivation()
                )
                (input_layernorm): LlamaRMSNorm()
                (post_attention_layernorm): LlamaRMSNorm()
              )
            )
          )
          (21): FullyShardedDataParallel(
            (_fsdp_wrapped_module): FlattenParamsWrapper(
              (_fpw_module): LlamaDecoderLayer(
                (self_attn): LlamaAttention(
                  (q_proj): Linear(in_features=4096, out_features=4096, bias=False)
                  (k_proj): Linear(in_features=4096, out_features=4096, bias=False)
                  (v_proj): Linear(in_features=4096, out_features=4096, bias=False)
                  (o_proj): Linear(in_features=4096, out_features=4096, bias=False)
                  (rotary_emb): LlamaRotaryEmbedding()
                )
                (mlp): LlamaMLP(
                  (gate_proj): Linear(in_features=4096, out_features=11008, bias=False)
                  (up_proj): Linear(in_features=4096, out_features=11008, bias=False)
                  (down_proj): Linear(in_features=11008, out_features=4096, bias=False)
                  (act_fn): SiLUActivation()
                )
                (input_layernorm): LlamaRMSNorm()
                (post_attention_layernorm): LlamaRMSNorm()
              )
            )
          )
          (22): FullyShardedDataParallel(
            (_fsdp_wrapped_module): FlattenParamsWrapper(
              (_fpw_module): LlamaDecoderLayer(
                (self_attn): LlamaAttention(
                  (q_proj): Linear(in_features=4096, out_features=4096, bias=False)
                  (k_proj): Linear(in_features=4096, out_features=4096, bias=False)
                  (v_proj): Linear(in_features=4096, out_features=4096, bias=False)
                  (o_proj): Linear(in_features=4096, out_features=4096, bias=False)
                  (rotary_emb): LlamaRotaryEmbedding()
                )
                (mlp): LlamaMLP(
                  (gate_proj): Linear(in_features=4096, out_features=11008, bias=False)
                  (up_proj): Linear(in_features=4096, out_features=11008, bias=False)
                  (down_proj): Linear(in_features=11008, out_features=4096, bias=False)
                  (act_fn): SiLUActivation()
                )
                (input_layernorm): LlamaRMSNorm()
                (post_attention_layernorm): LlamaRMSNorm()
              )
            )
          )
          (23): FullyShardedDataParallel(
            (_fsdp_wrapped_module): FlattenParamsWrapper(
              (_fpw_module): LlamaDecoderLayer(
                (self_attn): LlamaAttention(
                  (q_proj): Linear(in_features=4096, out_features=4096, bias=False)
                  (k_proj): Linear(in_features=4096, out_features=4096, bias=False)
                  (v_proj): Linear(in_features=4096, out_features=4096, bias=False)
                  (o_proj): Linear(in_features=4096, out_features=4096, bias=False)
                  (rotary_emb): LlamaRotaryEmbedding()
                )
                (mlp): LlamaMLP(
                  (gate_proj): Linear(in_features=4096, out_features=11008, bias=False)
                  (up_proj): Linear(in_features=4096, out_features=11008, bias=False)
                  (down_proj): Linear(in_features=11008, out_features=4096, bias=False)
                  (act_fn): SiLUActivation()
                )
                (input_layernorm): LlamaRMSNorm()
                (post_attention_layernorm): LlamaRMSNorm()
              )
            )
          )
          (24): FullyShardedDataParallel(
            (_fsdp_wrapped_module): FlattenParamsWrapper(
              (_fpw_module): LlamaDecoderLayer(
                (self_attn): LlamaAttention(
                  (q_proj): Linear(in_features=4096, out_features=4096, bias=False)
                  (k_proj): Linear(in_features=4096, out_features=4096, bias=False)
                  (v_proj): Linear(in_features=4096, out_features=4096, bias=False)
                  (o_proj): Linear(in_features=4096, out_features=4096, bias=False)
                  (rotary_emb): LlamaRotaryEmbedding()
                )
                (mlp): LlamaMLP(
                  (gate_proj): Linear(in_features=4096, out_features=11008, bias=False)
                  (up_proj): Linear(in_features=4096, out_features=11008, bias=False)
                  (down_proj): Linear(in_features=11008, out_features=4096, bias=False)
                  (act_fn): SiLUActivation()
                )
                (input_layernorm): LlamaRMSNorm()
                (post_attention_layernorm): LlamaRMSNorm()
              )
            )
          )
          (25): FullyShardedDataParallel(
            (_fsdp_wrapped_module): FlattenParamsWrapper(
              (_fpw_module): LlamaDecoderLayer(
                (self_attn): LlamaAttention(
                  (q_proj): Linear(in_features=4096, out_features=4096, bias=False)
                  (k_proj): Linear(in_features=4096, out_features=4096, bias=False)
                  (v_proj): Linear(in_features=4096, out_features=4096, bias=False)
                  (o_proj): Linear(in_features=4096, out_features=4096, bias=False)
                  (rotary_emb): LlamaRotaryEmbedding()
                )
                (mlp): LlamaMLP(
                  (gate_proj): Linear(in_features=4096, out_features=11008, bias=False)
                  (up_proj): Linear(in_features=4096, out_features=11008, bias=False)
                  (down_proj): Linear(in_features=11008, out_features=4096, bias=False)
                  (act_fn): SiLUActivation()
                )
                (input_layernorm): LlamaRMSNorm()
                (post_attention_layernorm): LlamaRMSNorm()
              )
            )
          )
          (26): FullyShardedDataParallel(
            (_fsdp_wrapped_module): FlattenParamsWrapper(
              (_fpw_module): LlamaDecoderLayer(
                (self_attn): LlamaAttention(
                  (q_proj): Linear(in_features=4096, out_features=4096, bias=False)
                  (k_proj): Linear(in_features=4096, out_features=4096, bias=False)
                  (v_proj): Linear(in_features=4096, out_features=4096, bias=False)
                  (o_proj): Linear(in_features=4096, out_features=4096, bias=False)
                  (rotary_emb): LlamaRotaryEmbedding()
                )
                (mlp): LlamaMLP(
                  (gate_proj): Linear(in_features=4096, out_features=11008, bias=False)
                  (up_proj): Linear(in_features=4096, out_features=11008, bias=False)
                  (down_proj): Linear(in_features=11008, out_features=4096, bias=False)
                  (act_fn): SiLUActivation()
                )
                (input_layernorm): LlamaRMSNorm()
                (post_attention_layernorm): LlamaRMSNorm()
              )
            )
          )
          (27): FullyShardedDataParallel(
            (_fsdp_wrapped_module): FlattenParamsWrapper(
              (_fpw_module): LlamaDecoderLayer(
                (self_attn): LlamaAttention(
                  (q_proj): Linear(in_features=4096, out_features=4096, bias=False)
                  (k_proj): Linear(in_features=4096, out_features=4096, bias=False)
                  (v_proj): Linear(in_features=4096, out_features=4096, bias=False)
                  (o_proj): Linear(in_features=4096, out_features=4096, bias=False)
                  (rotary_emb): LlamaRotaryEmbedding()
                )
                (mlp): LlamaMLP(
                  (gate_proj): Linear(in_features=4096, out_features=11008, bias=False)
                  (up_proj): Linear(in_features=4096, out_features=11008, bias=False)
                  (down_proj): Linear(in_features=11008, out_features=4096, bias=False)
                  (act_fn): SiLUActivation()
                )
                (input_layernorm): LlamaRMSNorm()
                (post_attention_layernorm): LlamaRMSNorm()
              )
            )
          )
          (28): FullyShardedDataParallel(
            (_fsdp_wrapped_module): FlattenParamsWrapper(
              (_fpw_module): LlamaDecoderLayer(
                (self_attn): LlamaAttention(
                  (q_proj): Linear(in_features=4096, out_features=4096, bias=False)
                  (k_proj): Linear(in_features=4096, out_features=4096, bias=False)
                  (v_proj): Linear(in_features=4096, out_features=4096, bias=False)
                  (o_proj): Linear(in_features=4096, out_features=4096, bias=False)
                  (rotary_emb): LlamaRotaryEmbedding()
                )
                (mlp): LlamaMLP(
                  (gate_proj): Linear(in_features=4096, out_features=11008, bias=False)
                  (up_proj): Linear(in_features=4096, out_features=11008, bias=False)
                  (down_proj): Linear(in_features=11008, out_features=4096, bias=False)
                  (act_fn): SiLUActivation()
                )
                (input_layernorm): LlamaRMSNorm()
                (post_attention_layernorm): LlamaRMSNorm()
              )
            )
          )
          (29): FullyShardedDataParallel(
            (_fsdp_wrapped_module): FlattenParamsWrapper(
              (_fpw_module): LlamaDecoderLayer(
                (self_attn): LlamaAttention(
                  (q_proj): Linear(in_features=4096, out_features=4096, bias=False)
                  (k_proj): Linear(in_features=4096, out_features=4096, bias=False)
                  (v_proj): Linear(in_features=4096, out_features=4096, bias=False)
                  (o_proj): Linear(in_features=4096, out_features=4096, bias=False)
                  (rotary_emb): LlamaRotaryEmbedding()
                )
                (mlp): LlamaMLP(
                  (gate_proj): Linear(in_features=4096, out_features=11008, bias=False)
                  (up_proj): Linear(in_features=4096, out_features=11008, bias=False)
                  (down_proj): Linear(in_features=11008, out_features=4096, bias=False)
                  (act_fn): SiLUActivation()
                )
                (input_layernorm): LlamaRMSNorm()
                (post_attention_layernorm): LlamaRMSNorm()
              )
            )
          )
          (30): FullyShardedDataParallel(
            (_fsdp_wrapped_module): FlattenParamsWrapper(
              (_fpw_module): LlamaDecoderLayer(
                (self_attn): LlamaAttention(
                  (q_proj): Linear(in_features=4096, out_features=4096, bias=False)
                  (k_proj): Linear(in_features=4096, out_features=4096, bias=False)
                  (v_proj): Linear(in_features=4096, out_features=4096, bias=False)
                  (o_proj): Linear(in_features=4096, out_features=4096, bias=False)
                  (rotary_emb): LlamaRotaryEmbedding()
                )
                (mlp): LlamaMLP(
                  (gate_proj): Linear(in_features=4096, out_features=11008, bias=False)
                  (up_proj): Linear(in_features=4096, out_features=11008, bias=False)
                  (down_proj): Linear(in_features=11008, out_features=4096, bias=False)
                  (act_fn): SiLUActivation()
                )
                (input_layernorm): LlamaRMSNorm()
                (post_attention_layernorm): LlamaRMSNorm()
              )
            )
          )
          (31): FullyShardedDataParallel(
            (_fsdp_wrapped_module): FlattenParamsWrapper(
              (_fpw_module): LlamaDecoderLayer(
                (self_attn): LlamaAttention(
                  (q_proj): Linear(in_features=4096, out_features=4096, bias=False)
                  (k_proj): Linear(in_features=4096, out_features=4096, bias=False)
                  (v_proj): Linear(in_features=4096, out_features=4096, bias=False)
                  (o_proj): Linear(in_features=4096, out_features=4096, bias=False)
                  (rotary_emb): LlamaRotaryEmbedding()
                )
                (mlp): LlamaMLP(
                  (gate_proj): Linear(in_features=4096, out_features=11008, bias=False)
                  (up_proj): Linear(in_features=4096, out_features=11008, bias=False)
                  (down_proj): Linear(in_features=11008, out_features=4096, bias=False)
                  (act_fn): SiLUActivation()
                )
                (input_layernorm): LlamaRMSNorm()
                (post_attention_layernorm): LlamaRMSNorm()
              )
            )
          )
        )
        (norm): LlamaRMSNorm()
      )
      (lm_head): Linear(in_features=4096, out_features=32001, bias=False)
    )
  )
)
FullyShardedDataParallel(
  (_fsdp_wrapped_module): FlattenParamsWrapper(
    (_fpw_module): LlamaForCausalLM(
      (model): LlamaModel(
        (embed_tokens): Embedding(32001, 4096)
        (layers): ModuleList(
          (0): FullyShardedDataParallel(
            (_fsdp_wrapped_module): FlattenParamsWrapper(
              (_fpw_module): LlamaDecoderLayer(
                (self_attn): LlamaAttention(
                  (q_proj): Linear(in_features=4096, out_features=4096, bias=False)
                  (k_proj): Linear(in_features=4096, out_features=4096, bias=False)
                  (v_proj): Linear(in_features=4096, out_features=4096, bias=False)
                  (o_proj): Linear(in_features=4096, out_features=4096, bias=False)
                  (rotary_emb): LlamaRotaryEmbedding()
                )
                (mlp): LlamaMLP(
                  (gate_proj): Linear(in_features=4096, out_features=11008, bias=False)
                  (up_proj): Linear(in_features=4096, out_features=11008, bias=False)
                  (down_proj): Linear(in_features=11008, out_features=4096, bias=False)
                  (act_fn): SiLUActivation()
                )
                (input_layernorm): LlamaRMSNorm()
                (post_attention_layernorm): LlamaRMSNorm()
              )
            )
          )
          (1): FullyShardedDataParallel(
            (_fsdp_wrapped_module): FlattenParamsWrapper(
              (_fpw_module): LlamaDecoderLayer(
                (self_attn): LlamaAttention(
                  (q_proj): Linear(in_features=4096, out_features=4096, bias=False)
                  (k_proj): Linear(in_features=4096, out_features=4096, bias=False)
                  (v_proj): Linear(in_features=4096, out_features=4096, bias=False)
                  (o_proj): Linear(in_features=4096, out_features=4096, bias=False)
                  (rotary_emb): LlamaRotaryEmbedding()
                )
                (mlp): LlamaMLP(
                  (gate_proj): Linear(in_features=4096, out_features=11008, bias=False)
                  (up_proj): Linear(in_features=4096, out_features=11008, bias=False)
                  (down_proj): Linear(in_features=11008, out_features=4096, bias=False)
                  (act_fn): SiLUActivation()
                )
                (input_layernorm): LlamaRMSNorm()
                (post_attention_layernorm): LlamaRMSNorm()
              )
            )
          )
          (2): FullyShardedDataParallel(
            (_fsdp_wrapped_module): FlattenParamsWrapper(
              (_fpw_module): LlamaDecoderLayer(
                (self_attn): LlamaAttention(
                  (q_proj): Linear(in_features=4096, out_features=4096, bias=False)
                  (k_proj): Linear(in_features=4096, out_features=4096, bias=False)
                  (v_proj): Linear(in_features=4096, out_features=4096, bias=False)
                  (o_proj): Linear(in_features=4096, out_features=4096, bias=False)
                  (rotary_emb): LlamaRotaryEmbedding()
                )
                (mlp): LlamaMLP(
                  (gate_proj): Linear(in_features=4096, out_features=11008, bias=False)
                  (up_proj): Linear(in_features=4096, out_features=11008, bias=False)
                  (down_proj): Linear(in_features=11008, out_features=4096, bias=False)
                  (act_fn): SiLUActivation()
                )
                (input_layernorm): LlamaRMSNorm()
                (post_attention_layernorm): LlamaRMSNorm()
              )
            )
          )
          (3): FullyShardedDataParallel(
            (_fsdp_wrapped_module): FlattenParamsWrapper(
              (_fpw_module): LlamaDecoderLayer(
                (self_attn): LlamaAttention(
                  (q_proj): Linear(in_features=4096, out_features=4096, bias=False)
                  (k_proj): Linear(in_features=4096, out_features=4096, bias=False)
                  (v_proj): Linear(in_features=4096, out_features=4096, bias=False)
                  (o_proj): Linear(in_features=4096, out_features=4096, bias=False)
                  (rotary_emb): LlamaRotaryEmbedding()
                )
                (mlp): LlamaMLP(
                  (gate_proj): Linear(in_features=4096, out_features=11008, bias=False)
                  (up_proj): Linear(in_features=4096, out_features=11008, bias=False)
                  (down_proj): Linear(in_features=11008, out_features=4096, bias=False)
                  (act_fn): SiLUActivation()
                )
                (input_layernorm): LlamaRMSNorm()
                (post_attention_layernorm): LlamaRMSNorm()
              )
            )
          )
          (4): FullyShardedDataParallel(
            (_fsdp_wrapped_module): FlattenParamsWrapper(
              (_fpw_module): LlamaDecoderLayer(
                (self_attn): LlamaAttention(
                  (q_proj): Linear(in_features=4096, out_features=4096, bias=False)
                  (k_proj): Linear(in_features=4096, out_features=4096, bias=False)
                  (v_proj): Linear(in_features=4096, out_features=4096, bias=False)
                  (o_proj): Linear(in_features=4096, out_features=4096, bias=False)
                  (rotary_emb): LlamaRotaryEmbedding()
                )
                (mlp): LlamaMLP(
                  (gate_proj): Linear(in_features=4096, out_features=11008, bias=False)
                  (up_proj): Linear(in_features=4096, out_features=11008, bias=False)
                  (down_proj): Linear(in_features=11008, out_features=4096, bias=False)
                  (act_fn): SiLUActivation()
                )
                (input_layernorm): LlamaRMSNorm()
                (post_attention_layernorm): LlamaRMSNorm()
              )
            )
          )
          (5): FullyShardedDataParallel(
            (_fsdp_wrapped_module): FlattenParamsWrapper(
              (_fpw_module): LlamaDecoderLayer(
                (self_attn): LlamaAttention(
                  (q_proj): Linear(in_features=4096, out_features=4096, bias=False)
                  (k_proj): Linear(in_features=4096, out_features=4096, bias=False)
                  (v_proj): Linear(in_features=4096, out_features=4096, bias=False)
                  (o_proj): Linear(in_features=4096, out_features=4096, bias=False)
                  (rotary_emb): LlamaRotaryEmbedding()
                )
                (mlp): LlamaMLP(
                  (gate_proj): Linear(in_features=4096, out_features=11008, bias=False)
                  (up_proj): Linear(in_features=4096, out_features=11008, bias=False)
                  (down_proj): Linear(in_features=11008, out_features=4096, bias=False)
                  (act_fn): SiLUActivation()
                )
                (input_layernorm): LlamaRMSNorm()
                (post_attention_layernorm): LlamaRMSNorm()
              )
            )
          )
          (6): FullyShardedDataParallel(
            (_fsdp_wrapped_module): FlattenParamsWrapper(
              (_fpw_module): LlamaDecoderLayer(
                (self_attn): LlamaAttention(
                  (q_proj): Linear(in_features=4096, out_features=4096, bias=False)
                  (k_proj): Linear(in_features=4096, out_features=4096, bias=False)
                  (v_proj): Linear(in_features=4096, out_features=4096, bias=False)
                  (o_proj): Linear(in_features=4096, out_features=4096, bias=False)
                  (rotary_emb): LlamaRotaryEmbedding()
                )
                (mlp): LlamaMLP(
                  (gate_proj): Linear(in_features=4096, out_features=11008, bias=False)
                  (up_proj): Linear(in_features=4096, out_features=11008, bias=False)
                  (down_proj): Linear(in_features=11008, out_features=4096, bias=False)
                  (act_fn): SiLUActivation()
                )
                (input_layernorm): LlamaRMSNorm()
                (post_attention_layernorm): LlamaRMSNorm()
              )
            )
          )
          (7): FullyShardedDataParallel(
            (_fsdp_wrapped_module): FlattenParamsWrapper(
              (_fpw_module): LlamaDecoderLayer(
                (self_attn): LlamaAttention(
                  (q_proj): Linear(in_features=4096, out_features=4096, bias=False)
                  (k_proj): Linear(in_features=4096, out_features=4096, bias=False)
                  (v_proj): Linear(in_features=4096, out_features=4096, bias=False)
                  (o_proj): Linear(in_features=4096, out_features=4096, bias=False)
                  (rotary_emb): LlamaRotaryEmbedding()
                )
                (mlp): LlamaMLP(
                  (gate_proj): Linear(in_features=4096, out_features=11008, bias=False)
                  (up_proj): Linear(in_features=4096, out_features=11008, bias=False)
                  (down_proj): Linear(in_features=11008, out_features=4096, bias=False)
                  (act_fn): SiLUActivation()
                )
                (input_layernorm): LlamaRMSNorm()
                (post_attention_layernorm): LlamaRMSNorm()
              )
            )
          )
          (8): FullyShardedDataParallel(
            (_fsdp_wrapped_module): FlattenParamsWrapper(
              (_fpw_module): LlamaDecoderLayer(
                (self_attn): LlamaAttention(
                  (q_proj): Linear(in_features=4096, out_features=4096, bias=False)
                  (k_proj): Linear(in_features=4096, out_features=4096, bias=False)
                  (v_proj): Linear(in_features=4096, out_features=4096, bias=False)
                  (o_proj): Linear(in_features=4096, out_features=4096, bias=False)
                  (rotary_emb): LlamaRotaryEmbedding()
                )
                (mlp): LlamaMLP(
                  (gate_proj): Linear(in_features=4096, out_features=11008, bias=False)
                  (up_proj): Linear(in_features=4096, out_features=11008, bias=False)
                  (down_proj): Linear(in_features=11008, out_features=4096, bias=False)
                  (act_fn): SiLUActivation()
                )
                (input_layernorm): LlamaRMSNorm()
                (post_attention_layernorm): LlamaRMSNorm()
              )
            )
          )
          (9): FullyShardedDataParallel(
            (_fsdp_wrapped_module): FlattenParamsWrapper(
              (_fpw_module): LlamaDecoderLayer(
                (self_attn): LlamaAttention(
                  (q_proj): Linear(in_features=4096, out_features=4096, bias=False)
                  (k_proj): Linear(in_features=4096, out_features=4096, bias=False)
                  (v_proj): Linear(in_features=4096, out_features=4096, bias=False)
                  (o_proj): Linear(in_features=4096, out_features=4096, bias=False)
                  (rotary_emb): LlamaRotaryEmbedding()
                )
                (mlp): LlamaMLP(
                  (gate_proj): Linear(in_features=4096, out_features=11008, bias=False)
                  (up_proj): Linear(in_features=4096, out_features=11008, bias=False)
                  (down_proj): Linear(in_features=11008, out_features=4096, bias=False)
                  (act_fn): SiLUActivation()
                )
                (input_layernorm): LlamaRMSNorm()
                (post_attention_layernorm): LlamaRMSNorm()
              )
            )
          )
          (10): FullyShardedDataParallel(
            (_fsdp_wrapped_module): FlattenParamsWrapper(
              (_fpw_module): LlamaDecoderLayer(
                (self_attn): LlamaAttention(
                  (q_proj): Linear(in_features=4096, out_features=4096, bias=False)
                  (k_proj): Linear(in_features=4096, out_features=4096, bias=False)
                  (v_proj): Linear(in_features=4096, out_features=4096, bias=False)
                  (o_proj): Linear(in_features=4096, out_features=4096, bias=False)
                  (rotary_emb): LlamaRotaryEmbedding()
                )
                (mlp): LlamaMLP(
                  (gate_proj): Linear(in_features=4096, out_features=11008, bias=False)
                  (up_proj): Linear(in_features=4096, out_features=11008, bias=False)
                  (down_proj): Linear(in_features=11008, out_features=4096, bias=False)
                  (act_fn): SiLUActivation()
                )
                (input_layernorm): LlamaRMSNorm()
                (post_attention_layernorm): LlamaRMSNorm()
              )
            )
          )
          (11): FullyShardedDataParallel(
            (_fsdp_wrapped_module): FlattenParamsWrapper(
              (_fpw_module): LlamaDecoderLayer(
                (self_attn): LlamaAttention(
                  (q_proj): Linear(in_features=4096, out_features=4096, bias=False)
                  (k_proj): Linear(in_features=4096, out_features=4096, bias=False)
                  (v_proj): Linear(in_features=4096, out_features=4096, bias=False)
                  (o_proj): Linear(in_features=4096, out_features=4096, bias=False)
                  (rotary_emb): LlamaRotaryEmbedding()
                )
                (mlp): LlamaMLP(
                  (gate_proj): Linear(in_features=4096, out_features=11008, bias=False)
                  (up_proj): Linear(in_features=4096, out_features=11008, bias=False)
                  (down_proj): Linear(in_features=11008, out_features=4096, bias=False)
                  (act_fn): SiLUActivation()
                )
                (input_layernorm): LlamaRMSNorm()
                (post_attention_layernorm): LlamaRMSNorm()
              )
            )
          )
          (12): FullyShardedDataParallel(
            (_fsdp_wrapped_module): FlattenParamsWrapper(
              (_fpw_module): LlamaDecoderLayer(
                (self_attn): LlamaAttention(
                  (q_proj): Linear(in_features=4096, out_features=4096, bias=False)
                  (k_proj): Linear(in_features=4096, out_features=4096, bias=False)
                  (v_proj): Linear(in_features=4096, out_features=4096, bias=False)
                  (o_proj): Linear(in_features=4096, out_features=4096, bias=False)
                  (rotary_emb): LlamaRotaryEmbedding()
                )
                (mlp): LlamaMLP(
                  (gate_proj): Linear(in_features=4096, out_features=11008, bias=False)
                  (up_proj): Linear(in_features=4096, out_features=11008, bias=False)
                  (down_proj): Linear(in_features=11008, out_features=4096, bias=False)
                  (act_fn): SiLUActivation()
                )
                (input_layernorm): LlamaRMSNorm()
                (post_attention_layernorm): LlamaRMSNorm()
              )
            )
          )
          (13): FullyShardedDataParallel(
            (_fsdp_wrapped_module): FlattenParamsWrapper(
              (_fpw_module): LlamaDecoderLayer(
                (self_attn): LlamaAttention(
                  (q_proj): Linear(in_features=4096, out_features=4096, bias=False)
                  (k_proj): Linear(in_features=4096, out_features=4096, bias=False)
                  (v_proj): Linear(in_features=4096, out_features=4096, bias=False)
                  (o_proj): Linear(in_features=4096, out_features=4096, bias=False)
                  (rotary_emb): LlamaRotaryEmbedding()
                )
                (mlp): LlamaMLP(
                  (gate_proj): Linear(in_features=4096, out_features=11008, bias=False)
                  (up_proj): Linear(in_features=4096, out_features=11008, bias=False)
                  (down_proj): Linear(in_features=11008, out_features=4096, bias=False)
                  (act_fn): SiLUActivation()
                )
                (input_layernorm): LlamaRMSNorm()
                (post_attention_layernorm): LlamaRMSNorm()
              )
            )
          )
          (14): FullyShardedDataParallel(
            (_fsdp_wrapped_module): FlattenParamsWrapper(
              (_fpw_module): LlamaDecoderLayer(
                (self_attn): LlamaAttention(
                  (q_proj): Linear(in_features=4096, out_features=4096, bias=False)
                  (k_proj): Linear(in_features=4096, out_features=4096, bias=False)
                  (v_proj): Linear(in_features=4096, out_features=4096, bias=False)
                  (o_proj): Linear(in_features=4096, out_features=4096, bias=False)
                  (rotary_emb): LlamaRotaryEmbedding()
                )
                (mlp): LlamaMLP(
                  (gate_proj): Linear(in_features=4096, out_features=11008, bias=False)
                  (up_proj): Linear(in_features=4096, out_features=11008, bias=False)
                  (down_proj): Linear(in_features=11008, out_features=4096, bias=False)
                  (act_fn): SiLUActivation()
                )
                (input_layernorm): LlamaRMSNorm()
                (post_attention_layernorm): LlamaRMSNorm()
              )
            )
          )
          (15): FullyShardedDataParallel(
            (_fsdp_wrapped_module): FlattenParamsWrapper(
              (_fpw_module): LlamaDecoderLayer(
                (self_attn): LlamaAttention(
                  (q_proj): Linear(in_features=4096, out_features=4096, bias=False)
                  (k_proj): Linear(in_features=4096, out_features=4096, bias=False)
                  (v_proj): Linear(in_features=4096, out_features=4096, bias=False)
                  (o_proj): Linear(in_features=4096, out_features=4096, bias=False)
                  (rotary_emb): LlamaRotaryEmbedding()
                )
                (mlp): LlamaMLP(
                  (gate_proj): Linear(in_features=4096, out_features=11008, bias=False)
                  (up_proj): Linear(in_features=4096, out_features=11008, bias=False)
                  (down_proj): Linear(in_features=11008, out_features=4096, bias=False)
                  (act_fn): SiLUActivation()
                )
                (input_layernorm): LlamaRMSNorm()
                (post_attention_layernorm): LlamaRMSNorm()
              )
            )
          )
          (16): FullyShardedDataParallel(
            (_fsdp_wrapped_module): FlattenParamsWrapper(
              (_fpw_module): LlamaDecoderLayer(
                (self_attn): LlamaAttention(
                  (q_proj): Linear(in_features=4096, out_features=4096, bias=False)
                  (k_proj): Linear(in_features=4096, out_features=4096, bias=False)
                  (v_proj): Linear(in_features=4096, out_features=4096, bias=False)
                  (o_proj): Linear(in_features=4096, out_features=4096, bias=False)
                  (rotary_emb): LlamaRotaryEmbedding()
                )
                (mlp): LlamaMLP(
                  (gate_proj): Linear(in_features=4096, out_features=11008, bias=False)
                  (up_proj): Linear(in_features=4096, out_features=11008, bias=False)
                  (down_proj): Linear(in_features=11008, out_features=4096, bias=False)
                  (act_fn): SiLUActivation()
                )
                (input_layernorm): LlamaRMSNorm()
                (post_attention_layernorm): LlamaRMSNorm()
              )
            )
          )
          (17): FullyShardedDataParallel(
            (_fsdp_wrapped_module): FlattenParamsWrapper(
              (_fpw_module): LlamaDecoderLayer(
                (self_attn): LlamaAttention(
                  (q_proj): Linear(in_features=4096, out_features=4096, bias=False)
                  (k_proj): Linear(in_features=4096, out_features=4096, bias=False)
                  (v_proj): Linear(in_features=4096, out_features=4096, bias=False)
                  (o_proj): Linear(in_features=4096, out_features=4096, bias=False)
                  (rotary_emb): LlamaRotaryEmbedding()
                )
                (mlp): LlamaMLP(
                  (gate_proj): Linear(in_features=4096, out_features=11008, bias=False)
                  (up_proj): Linear(in_features=4096, out_features=11008, bias=False)
                  (down_proj): Linear(in_features=11008, out_features=4096, bias=False)
                  (act_fn): SiLUActivation()
                )
                (input_layernorm): LlamaRMSNorm()
                (post_attention_layernorm): LlamaRMSNorm()
              )
            )
          )
          (18): FullyShardedDataParallel(
            (_fsdp_wrapped_module): FlattenParamsWrapper(
              (_fpw_module): LlamaDecoderLayer(
                (self_attn): LlamaAttention(
                  (q_proj): Linear(in_features=4096, out_features=4096, bias=False)
                  (k_proj): Linear(in_features=4096, out_features=4096, bias=False)
                  (v_proj): Linear(in_features=4096, out_features=4096, bias=False)
                  (o_proj): Linear(in_features=4096, out_features=4096, bias=False)
                  (rotary_emb): LlamaRotaryEmbedding()
                )
                (mlp): LlamaMLP(
                  (gate_proj): Linear(in_features=4096, out_features=11008, bias=False)
                  (up_proj): Linear(in_features=4096, out_features=11008, bias=False)
                  (down_proj): Linear(in_features=11008, out_features=4096, bias=False)
                  (act_fn): SiLUActivation()
                )
                (input_layernorm): LlamaRMSNorm()
                (post_attention_layernorm): LlamaRMSNorm()
              )
            )
          )
          (19): FullyShardedDataParallel(
            (_fsdp_wrapped_module): FlattenParamsWrapper(
              (_fpw_module): LlamaDecoderLayer(
                (self_attn): LlamaAttention(
                  (q_proj): Linear(in_features=4096, out_features=4096, bias=False)
                  (k_proj): Linear(in_features=4096, out_features=4096, bias=False)
                  (v_proj): Linear(in_features=4096, out_features=4096, bias=False)
                  (o_proj): Linear(in_features=4096, out_features=4096, bias=False)
                  (rotary_emb): LlamaRotaryEmbedding()
                )
                (mlp): LlamaMLP(
                  (gate_proj): Linear(in_features=4096, out_features=11008, bias=False)
                  (up_proj): Linear(in_features=4096, out_features=11008, bias=False)
                  (down_proj): Linear(in_features=11008, out_features=4096, bias=False)
                  (act_fn): SiLUActivation()
                )
                (input_layernorm): LlamaRMSNorm()
                (post_attention_layernorm): LlamaRMSNorm()
              )
            )
          )
          (20): FullyShardedDataParallel(
            (_fsdp_wrapped_module): FlattenParamsWrapper(
              (_fpw_module): LlamaDecoderLayer(
                (self_attn): LlamaAttention(
                  (q_proj): Linear(in_features=4096, out_features=4096, bias=False)
                  (k_proj): Linear(in_features=4096, out_features=4096, bias=False)
                  (v_proj): Linear(in_features=4096, out_features=4096, bias=False)
                  (o_proj): Linear(in_features=4096, out_features=4096, bias=False)
                  (rotary_emb): LlamaRotaryEmbedding()
                )
                (mlp): LlamaMLP(
                  (gate_proj): Linear(in_features=4096, out_features=11008, bias=False)
                  (up_proj): Linear(in_features=4096, out_features=11008, bias=False)
                  (down_proj): Linear(in_features=11008, out_features=4096, bias=False)
                  (act_fn): SiLUActivation()
                )
                (input_layernorm): LlamaRMSNorm()
                (post_attention_layernorm): LlamaRMSNorm()
              )
            )
          )
          (21): FullyShardedDataParallel(
            (_fsdp_wrapped_module): FlattenParamsWrapper(
              (_fpw_module): LlamaDecoderLayer(
                (self_attn): LlamaAttention(
                  (q_proj): Linear(in_features=4096, out_features=4096, bias=False)
                  (k_proj): Linear(in_features=4096, out_features=4096, bias=False)
                  (v_proj): Linear(in_features=4096, out_features=4096, bias=False)
                  (o_proj): Linear(in_features=4096, out_features=4096, bias=False)
                  (rotary_emb): LlamaRotaryEmbedding()
                )
                (mlp): LlamaMLP(
                  (gate_proj): Linear(in_features=4096, out_features=11008, bias=False)
                  (up_proj): Linear(in_features=4096, out_features=11008, bias=False)
                  (down_proj): Linear(in_features=11008, out_features=4096, bias=False)
                  (act_fn): SiLUActivation()
                )
                (input_layernorm): LlamaRMSNorm()
                (post_attention_layernorm): LlamaRMSNorm()
              )
            )
          )
          (22): FullyShardedDataParallel(
            (_fsdp_wrapped_module): FlattenParamsWrapper(
              (_fpw_module): LlamaDecoderLayer(
                (self_attn): LlamaAttention(
                  (q_proj): Linear(in_features=4096, out_features=4096, bias=False)
                  (k_proj): Linear(in_features=4096, out_features=4096, bias=False)
                  (v_proj): Linear(in_features=4096, out_features=4096, bias=False)
                  (o_proj): Linear(in_features=4096, out_features=4096, bias=False)
                  (rotary_emb): LlamaRotaryEmbedding()
                )
                (mlp): LlamaMLP(
                  (gate_proj): Linear(in_features=4096, out_features=11008, bias=False)
                  (up_proj): Linear(in_features=4096, out_features=11008, bias=False)
                  (down_proj): Linear(in_features=11008, out_features=4096, bias=False)
                  (act_fn): SiLUActivation()
                )
                (input_layernorm): LlamaRMSNorm()
                (post_attention_layernorm): LlamaRMSNorm()
              )
            )
          )
          (23): FullyShardedDataParallel(
            (_fsdp_wrapped_module): FlattenParamsWrapper(
              (_fpw_module): LlamaDecoderLayer(
                (self_attn): LlamaAttention(
                  (q_proj): Linear(in_features=4096, out_features=4096, bias=False)
                  (k_proj): Linear(in_features=4096, out_features=4096, bias=False)
                  (v_proj): Linear(in_features=4096, out_features=4096, bias=False)
                  (o_proj): Linear(in_features=4096, out_features=4096, bias=False)
                  (rotary_emb): LlamaRotaryEmbedding()
                )
                (mlp): LlamaMLP(
                  (gate_proj): Linear(in_features=4096, out_features=11008, bias=False)
                  (up_proj): Linear(in_features=4096, out_features=11008, bias=False)
                  (down_proj): Linear(in_features=11008, out_features=4096, bias=False)
                  (act_fn): SiLUActivation()
                )
                (input_layernorm): LlamaRMSNorm()
                (post_attention_layernorm): LlamaRMSNorm()
              )
            )
          )
          (24): FullyShardedDataParallel(
            (_fsdp_wrapped_module): FlattenParamsWrapper(
              (_fpw_module): LlamaDecoderLayer(
                (self_attn): LlamaAttention(
                  (q_proj): Linear(in_features=4096, out_features=4096, bias=False)
                  (k_proj): Linear(in_features=4096, out_features=4096, bias=False)
                  (v_proj): Linear(in_features=4096, out_features=4096, bias=False)
                  (o_proj): Linear(in_features=4096, out_features=4096, bias=False)
                  (rotary_emb): LlamaRotaryEmbedding()
                )
                (mlp): LlamaMLP(
                  (gate_proj): Linear(in_features=4096, out_features=11008, bias=False)
                  (up_proj): Linear(in_features=4096, out_features=11008, bias=False)
                  (down_proj): Linear(in_features=11008, out_features=4096, bias=False)
                  (act_fn): SiLUActivation()
                )
                (input_layernorm): LlamaRMSNorm()
                (post_attention_layernorm): LlamaRMSNorm()
              )
            )
          )
          (25): FullyShardedDataParallel(
            (_fsdp_wrapped_module): FlattenParamsWrapper(
              (_fpw_module): LlamaDecoderLayer(
                (self_attn): LlamaAttention(
                  (q_proj): Linear(in_features=4096, out_features=4096, bias=False)
                  (k_proj): Linear(in_features=4096, out_features=4096, bias=False)
                  (v_proj): Linear(in_features=4096, out_features=4096, bias=False)
                  (o_proj): Linear(in_features=4096, out_features=4096, bias=False)
                  (rotary_emb): LlamaRotaryEmbedding()
                )
                (mlp): LlamaMLP(
                  (gate_proj): Linear(in_features=4096, out_features=11008, bias=False)
                  (up_proj): Linear(in_features=4096, out_features=11008, bias=False)
                  (down_proj): Linear(in_features=11008, out_features=4096, bias=False)
                  (act_fn): SiLUActivation()
                )
                (input_layernorm): LlamaRMSNorm()
                (post_attention_layernorm): LlamaRMSNorm()
              )
            )
          )
          (26): FullyShardedDataParallel(
            (_fsdp_wrapped_module): FlattenParamsWrapper(
              (_fpw_module): LlamaDecoderLayer(
                (self_attn): LlamaAttention(
                  (q_proj): Linear(in_features=4096, out_features=4096, bias=False)
                  (k_proj): Linear(in_features=4096, out_features=4096, bias=False)
                  (v_proj): Linear(in_features=4096, out_features=4096, bias=False)
                  (o_proj): Linear(in_features=4096, out_features=4096, bias=False)
                  (rotary_emb): LlamaRotaryEmbedding()
                )
                (mlp): LlamaMLP(
                  (gate_proj): Linear(in_features=4096, out_features=11008, bias=False)
                  (up_proj): Linear(in_features=4096, out_features=11008, bias=False)
                  (down_proj): Linear(in_features=11008, out_features=4096, bias=False)
                  (act_fn): SiLUActivation()
                )
                (input_layernorm): LlamaRMSNorm()
                (post_attention_layernorm): LlamaRMSNorm()
              )
            )
          )
          (27): FullyShardedDataParallel(
            (_fsdp_wrapped_module): FlattenParamsWrapper(
              (_fpw_module): LlamaDecoderLayer(
                (self_attn): LlamaAttention(
                  (q_proj): Linear(in_features=4096, out_features=4096, bias=False)
                  (k_proj): Linear(in_features=4096, out_features=4096, bias=False)
                  (v_proj): Linear(in_features=4096, out_features=4096, bias=False)
                  (o_proj): Linear(in_features=4096, out_features=4096, bias=False)
                  (rotary_emb): LlamaRotaryEmbedding()
                )
                (mlp): LlamaMLP(
                  (gate_proj): Linear(in_features=4096, out_features=11008, bias=False)
                  (up_proj): Linear(in_features=4096, out_features=11008, bias=False)
                  (down_proj): Linear(in_features=11008, out_features=4096, bias=False)
                  (act_fn): SiLUActivation()
                )
                (input_layernorm): LlamaRMSNorm()
                (post_attention_layernorm): LlamaRMSNorm()
              )
            )
          )
          (28): FullyShardedDataParallel(
            (_fsdp_wrapped_module): FlattenParamsWrapper(
              (_fpw_module): LlamaDecoderLayer(
                (self_attn): LlamaAttention(
                  (q_proj): Linear(in_features=4096, out_features=4096, bias=False)
                  (k_proj): Linear(in_features=4096, out_features=4096, bias=False)
                  (v_proj): Linear(in_features=4096, out_features=4096, bias=False)
                  (o_proj): Linear(in_features=4096, out_features=4096, bias=False)
                  (rotary_emb): LlamaRotaryEmbedding()
                )
                (mlp): LlamaMLP(
                  (gate_proj): Linear(in_features=4096, out_features=11008, bias=False)
                  (up_proj): Linear(in_features=4096, out_features=11008, bias=False)
                  (down_proj): Linear(in_features=11008, out_features=4096, bias=False)
                  (act_fn): SiLUActivation()
                )
                (input_layernorm): LlamaRMSNorm()
                (post_attention_layernorm): LlamaRMSNorm()
              )
            )
          )
          (29): FullyShardedDataParallel(
            (_fsdp_wrapped_module): FlattenParamsWrapper(
              (_fpw_module): LlamaDecoderLayer(
                (self_attn): LlamaAttention(
                  (q_proj): Linear(in_features=4096, out_features=4096, bias=False)
                  (k_proj): Linear(in_features=4096, out_features=4096, bias=False)
                  (v_proj): Linear(in_features=4096, out_features=4096, bias=False)
                  (o_proj): Linear(in_features=4096, out_features=4096, bias=False)
                  (rotary_emb): LlamaRotaryEmbedding()
                )
                (mlp): LlamaMLP(
                  (gate_proj): Linear(in_features=4096, out_features=11008, bias=False)
                  (up_proj): Linear(in_features=4096, out_features=11008, bias=False)
                  (down_proj): Linear(in_features=11008, out_features=4096, bias=False)
                  (act_fn): SiLUActivation()
                )
                (input_layernorm): LlamaRMSNorm()
                (post_attention_layernorm): LlamaRMSNorm()
              )
            )
          )
          (30): FullyShardedDataParallel(
            (_fsdp_wrapped_module): FlattenParamsWrapper(
              (_fpw_module): LlamaDecoderLayer(
                (self_attn): LlamaAttention(
                  (q_proj): Linear(in_features=4096, out_features=4096, bias=False)
                  (k_proj): Linear(in_features=4096, out_features=4096, bias=False)
                  (v_proj): Linear(in_features=4096, out_features=4096, bias=False)
                  (o_proj): Linear(in_features=4096, out_features=4096, bias=False)
                  (rotary_emb): LlamaRotaryEmbedding()
                )
                (mlp): LlamaMLP(
                  (gate_proj): Linear(in_features=4096, out_features=11008, bias=False)
                  (up_proj): Linear(in_features=4096, out_features=11008, bias=False)
                  (down_proj): Linear(in_features=11008, out_features=4096, bias=False)
                  (act_fn): SiLUActivation()
                )
                (input_layernorm): LlamaRMSNorm()
                (post_attention_layernorm): LlamaRMSNorm()
              )
            )
          )
          (31): FullyShardedDataParallel(
            (_fsdp_wrapped_module): FlattenParamsWrapper(
              (_fpw_module): LlamaDecoderLayer(
                (self_attn): LlamaAttention(
                  (q_proj): Linear(in_features=4096, out_features=4096, bias=False)
                  (k_proj): Linear(in_features=4096, out_features=4096, bias=False)
                  (v_proj): Linear(in_features=4096, out_features=4096, bias=False)
                  (o_proj): Linear(in_features=4096, out_features=4096, bias=False)
                  (rotary_emb): LlamaRotaryEmbedding()
                )
                (mlp): LlamaMLP(
                  (gate_proj): Linear(in_features=4096, out_features=11008, bias=False)
                  (up_proj): Linear(in_features=4096, out_features=11008, bias=False)
                  (down_proj): Linear(in_features=11008, out_features=4096, bias=False)
                  (act_fn): SiLUActivation()
                )
                (input_layernorm): LlamaRMSNorm()
                (post_attention_layernorm): LlamaRMSNorm()
              )
            )
          )
        )
        (norm): LlamaRMSNorm()
      )
      (lm_head): Linear(in_features=4096, out_features=32001, bias=False)
    )
  )
)
/home/lanxiang/anaconda3/envs/llm_train/lib/python3.9/site-packages/torch/distributed/distributed_c10d.py:2387: UserWarning: torch.distributed._all_gather_base is a private function and will be deprecated. Please use torch.distributed.all_gather_into_tensor instead.
  warnings.warn(
/home/lanxiang/anaconda3/envs/llm_train/lib/python3.9/site-packages/torch/distributed/distributed_c10d.py:2387: UserWarning: torch.distributed._all_gather_base is a private function and will be deprecated. Please use torch.distributed.all_gather_into_tensor instead.
  warnings.warn(
/home/lanxiang/anaconda3/envs/llm_train/lib/python3.9/site-packages/transformers/optimization.py:411: FutureWarning: This implementation of AdamW is deprecated and will be removed in a future version. Use the PyTorch implementation torch.optim.AdamW instead, or set `no_deprecation_warning=True` to disable this warning
  warnings.warn(
FullyShardedDataParallel(
  (_fsdp_wrapped_module): FlattenParamsWrapper(
    (_fpw_module): LlamaForCausalLM(
      (model): LlamaModel(
        (embed_tokens): Embedding(32001, 4096)
        (layers): ModuleList(
          (0): FullyShardedDataParallel(
            (_fsdp_wrapped_module): FlattenParamsWrapper(
              (_fpw_module): LlamaDecoderLayer(
                (self_attn): LlamaAttention(
                  (q_proj): Linear(in_features=4096, out_features=4096, bias=False)
                  (k_proj): Linear(in_features=4096, out_features=4096, bias=False)
                  (v_proj): Linear(in_features=4096, out_features=4096, bias=False)
                  (o_proj): Linear(in_features=4096, out_features=4096, bias=False)
                  (rotary_emb): LlamaRotaryEmbedding()
                )
                (mlp): LlamaMLP(
                  (gate_proj): Linear(in_features=4096, out_features=11008, bias=False)
                  (up_proj): Linear(in_features=4096, out_features=11008, bias=False)
                  (down_proj): Linear(in_features=11008, out_features=4096, bias=False)
                  (act_fn): SiLUActivation()
                )
                (input_layernorm): LlamaRMSNorm()
                (post_attention_layernorm): LlamaRMSNorm()
              )
            )
          )
          (1): FullyShardedDataParallel(
            (_fsdp_wrapped_module): FlattenParamsWrapper(
              (_fpw_module): LlamaDecoderLayer(
                (self_attn): LlamaAttention(
                  (q_proj): Linear(in_features=4096, out_features=4096, bias=False)
                  (k_proj): Linear(in_features=4096, out_features=4096, bias=False)
                  (v_proj): Linear(in_features=4096, out_features=4096, bias=False)
                  (o_proj): Linear(in_features=4096, out_features=4096, bias=False)
                  (rotary_emb): LlamaRotaryEmbedding()
                )
                (mlp): LlamaMLP(
                  (gate_proj): Linear(in_features=4096, out_features=11008, bias=False)
                  (up_proj): Linear(in_features=4096, out_features=11008, bias=False)
                  (down_proj): Linear(in_features=11008, out_features=4096, bias=False)
                  (act_fn): SiLUActivation()
                )
                (input_layernorm): LlamaRMSNorm()
                (post_attention_layernorm): LlamaRMSNorm()
              )
            )
          )
          (2): FullyShardedDataParallel(
            (_fsdp_wrapped_module): FlattenParamsWrapper(
              (_fpw_module): LlamaDecoderLayer(
                (self_attn): LlamaAttention(
                  (q_proj): Linear(in_features=4096, out_features=4096, bias=False)
                  (k_proj): Linear(in_features=4096, out_features=4096, bias=False)
                  (v_proj): Linear(in_features=4096, out_features=4096, bias=False)
                  (o_proj): Linear(in_features=4096, out_features=4096, bias=False)
                  (rotary_emb): LlamaRotaryEmbedding()
                )
                (mlp): LlamaMLP(
                  (gate_proj): Linear(in_features=4096, out_features=11008, bias=False)
                  (up_proj): Linear(in_features=4096, out_features=11008, bias=False)
                  (down_proj): Linear(in_features=11008, out_features=4096, bias=False)
                  (act_fn): SiLUActivation()
                )
                (input_layernorm): LlamaRMSNorm()
                (post_attention_layernorm): LlamaRMSNorm()
              )
            )
          )
          (3): FullyShardedDataParallel(
            (_fsdp_wrapped_module): FlattenParamsWrapper(
              (_fpw_module): LlamaDecoderLayer(
                (self_attn): LlamaAttention(
                  (q_proj): Linear(in_features=4096, out_features=4096, bias=False)
                  (k_proj): Linear(in_features=4096, out_features=4096, bias=False)
                  (v_proj): Linear(in_features=4096, out_features=4096, bias=False)
                  (o_proj): Linear(in_features=4096, out_features=4096, bias=False)
                  (rotary_emb): LlamaRotaryEmbedding()
                )
                (mlp): LlamaMLP(
                  (gate_proj): Linear(in_features=4096, out_features=11008, bias=False)
                  (up_proj): Linear(in_features=4096, out_features=11008, bias=False)
                  (down_proj): Linear(in_features=11008, out_features=4096, bias=False)
                  (act_fn): SiLUActivation()
                )
                (input_layernorm): LlamaRMSNorm()
                (post_attention_layernorm): LlamaRMSNorm()
              )
            )
          )
          (4): FullyShardedDataParallel(
            (_fsdp_wrapped_module): FlattenParamsWrapper(
              (_fpw_module): LlamaDecoderLayer(
                (self_attn): LlamaAttention(
                  (q_proj): Linear(in_features=4096, out_features=4096, bias=False)
                  (k_proj): Linear(in_features=4096, out_features=4096, bias=False)
                  (v_proj): Linear(in_features=4096, out_features=4096, bias=False)
                  (o_proj): Linear(in_features=4096, out_features=4096, bias=False)
                  (rotary_emb): LlamaRotaryEmbedding()
                )
                (mlp): LlamaMLP(
                  (gate_proj): Linear(in_features=4096, out_features=11008, bias=False)
                  (up_proj): Linear(in_features=4096, out_features=11008, bias=False)
                  (down_proj): Linear(in_features=11008, out_features=4096, bias=False)
                  (act_fn): SiLUActivation()
                )
                (input_layernorm): LlamaRMSNorm()
                (post_attention_layernorm): LlamaRMSNorm()
              )
            )
          )
          (5): FullyShardedDataParallel(
            (_fsdp_wrapped_module): FlattenParamsWrapper(
              (_fpw_module): LlamaDecoderLayer(
                (self_attn): LlamaAttention(
                  (q_proj): Linear(in_features=4096, out_features=4096, bias=False)
                  (k_proj): Linear(in_features=4096, out_features=4096, bias=False)
                  (v_proj): Linear(in_features=4096, out_features=4096, bias=False)
                  (o_proj): Linear(in_features=4096, out_features=4096, bias=False)
                  (rotary_emb): LlamaRotaryEmbedding()
                )
                (mlp): LlamaMLP(
                  (gate_proj): Linear(in_features=4096, out_features=11008, bias=False)
                  (up_proj): Linear(in_features=4096, out_features=11008, bias=False)
                  (down_proj): Linear(in_features=11008, out_features=4096, bias=False)
                  (act_fn): SiLUActivation()
                )
                (input_layernorm): LlamaRMSNorm()
                (post_attention_layernorm): LlamaRMSNorm()
              )
            )
          )
          (6): FullyShardedDataParallel(
            (_fsdp_wrapped_module): FlattenParamsWrapper(
              (_fpw_module): LlamaDecoderLayer(
                (self_attn): LlamaAttention(
                  (q_proj): Linear(in_features=4096, out_features=4096, bias=False)
                  (k_proj): Linear(in_features=4096, out_features=4096, bias=False)
                  (v_proj): Linear(in_features=4096, out_features=4096, bias=False)
                  (o_proj): Linear(in_features=4096, out_features=4096, bias=False)
                  (rotary_emb): LlamaRotaryEmbedding()
                )
                (mlp): LlamaMLP(
                  (gate_proj): Linear(in_features=4096, out_features=11008, bias=False)
                  (up_proj): Linear(in_features=4096, out_features=11008, bias=False)
                  (down_proj): Linear(in_features=11008, out_features=4096, bias=False)
                  (act_fn): SiLUActivation()
                )
                (input_layernorm): LlamaRMSNorm()
                (post_attention_layernorm): LlamaRMSNorm()
              )
            )
          )
          (7): FullyShardedDataParallel(
            (_fsdp_wrapped_module): FlattenParamsWrapper(
              (_fpw_module): LlamaDecoderLayer(
                (self_attn): LlamaAttention(
                  (q_proj): Linear(in_features=4096, out_features=4096, bias=False)
                  (k_proj): Linear(in_features=4096, out_features=4096, bias=False)
                  (v_proj): Linear(in_features=4096, out_features=4096, bias=False)
                  (o_proj): Linear(in_features=4096, out_features=4096, bias=False)
                  (rotary_emb): LlamaRotaryEmbedding()
                )
                (mlp): LlamaMLP(
                  (gate_proj): Linear(in_features=4096, out_features=11008, bias=False)
                  (up_proj): Linear(in_features=4096, out_features=11008, bias=False)
                  (down_proj): Linear(in_features=11008, out_features=4096, bias=False)
                  (act_fn): SiLUActivation()
                )
                (input_layernorm): LlamaRMSNorm()
                (post_attention_layernorm): LlamaRMSNorm()
              )
            )
          )
          (8): FullyShardedDataParallel(
            (_fsdp_wrapped_module): FlattenParamsWrapper(
              (_fpw_module): LlamaDecoderLayer(
                (self_attn): LlamaAttention(
                  (q_proj): Linear(in_features=4096, out_features=4096, bias=False)
                  (k_proj): Linear(in_features=4096, out_features=4096, bias=False)
                  (v_proj): Linear(in_features=4096, out_features=4096, bias=False)
                  (o_proj): Linear(in_features=4096, out_features=4096, bias=False)
                  (rotary_emb): LlamaRotaryEmbedding()
                )
                (mlp): LlamaMLP(
                  (gate_proj): Linear(in_features=4096, out_features=11008, bias=False)
                  (up_proj): Linear(in_features=4096, out_features=11008, bias=False)
                  (down_proj): Linear(in_features=11008, out_features=4096, bias=False)
                  (act_fn): SiLUActivation()
                )
                (input_layernorm): LlamaRMSNorm()
                (post_attention_layernorm): LlamaRMSNorm()
              )
            )
          )
          (9): FullyShardedDataParallel(
            (_fsdp_wrapped_module): FlattenParamsWrapper(
              (_fpw_module): LlamaDecoderLayer(
                (self_attn): LlamaAttention(
                  (q_proj): Linear(in_features=4096, out_features=4096, bias=False)
                  (k_proj): Linear(in_features=4096, out_features=4096, bias=False)
                  (v_proj): Linear(in_features=4096, out_features=4096, bias=False)
                  (o_proj): Linear(in_features=4096, out_features=4096, bias=False)
                  (rotary_emb): LlamaRotaryEmbedding()
                )
                (mlp): LlamaMLP(
                  (gate_proj): Linear(in_features=4096, out_features=11008, bias=False)
                  (up_proj): Linear(in_features=4096, out_features=11008, bias=False)
                  (down_proj): Linear(in_features=11008, out_features=4096, bias=False)
                  (act_fn): SiLUActivation()
                )
                (input_layernorm): LlamaRMSNorm()
                (post_attention_layernorm): LlamaRMSNorm()
              )
            )
          )
          (10): FullyShardedDataParallel(
            (_fsdp_wrapped_module): FlattenParamsWrapper(
              (_fpw_module): LlamaDecoderLayer(
                (self_attn): LlamaAttention(
                  (q_proj): Linear(in_features=4096, out_features=4096, bias=False)
                  (k_proj): Linear(in_features=4096, out_features=4096, bias=False)
                  (v_proj): Linear(in_features=4096, out_features=4096, bias=False)
                  (o_proj): Linear(in_features=4096, out_features=4096, bias=False)
                  (rotary_emb): LlamaRotaryEmbedding()
                )
                (mlp): LlamaMLP(
                  (gate_proj): Linear(in_features=4096, out_features=11008, bias=False)
                  (up_proj): Linear(in_features=4096, out_features=11008, bias=False)
                  (down_proj): Linear(in_features=11008, out_features=4096, bias=False)
                  (act_fn): SiLUActivation()
                )
                (input_layernorm): LlamaRMSNorm()
                (post_attention_layernorm): LlamaRMSNorm()
              )
            )
          )
          (11): FullyShardedDataParallel(
            (_fsdp_wrapped_module): FlattenParamsWrapper(
              (_fpw_module): LlamaDecoderLayer(
                (self_attn): LlamaAttention(
                  (q_proj): Linear(in_features=4096, out_features=4096, bias=False)
                  (k_proj): Linear(in_features=4096, out_features=4096, bias=False)
                  (v_proj): Linear(in_features=4096, out_features=4096, bias=False)
                  (o_proj): Linear(in_features=4096, out_features=4096, bias=False)
                  (rotary_emb): LlamaRotaryEmbedding()
                )
                (mlp): LlamaMLP(
                  (gate_proj): Linear(in_features=4096, out_features=11008, bias=False)
                  (up_proj): Linear(in_features=4096, out_features=11008, bias=False)
                  (down_proj): Linear(in_features=11008, out_features=4096, bias=False)
                  (act_fn): SiLUActivation()
                )
                (input_layernorm): LlamaRMSNorm()
                (post_attention_layernorm): LlamaRMSNorm()
              )
            )
          )
          (12): FullyShardedDataParallel(
            (_fsdp_wrapped_module): FlattenParamsWrapper(
              (_fpw_module): LlamaDecoderLayer(
                (self_attn): LlamaAttention(
                  (q_proj): Linear(in_features=4096, out_features=4096, bias=False)
                  (k_proj): Linear(in_features=4096, out_features=4096, bias=False)
                  (v_proj): Linear(in_features=4096, out_features=4096, bias=False)
                  (o_proj): Linear(in_features=4096, out_features=4096, bias=False)
                  (rotary_emb): LlamaRotaryEmbedding()
                )
                (mlp): LlamaMLP(
                  (gate_proj): Linear(in_features=4096, out_features=11008, bias=False)
                  (up_proj): Linear(in_features=4096, out_features=11008, bias=False)
                  (down_proj): Linear(in_features=11008, out_features=4096, bias=False)
                  (act_fn): SiLUActivation()
                )
                (input_layernorm): LlamaRMSNorm()
                (post_attention_layernorm): LlamaRMSNorm()
              )
            )
          )
          (13): FullyShardedDataParallel(
            (_fsdp_wrapped_module): FlattenParamsWrapper(
              (_fpw_module): LlamaDecoderLayer(
                (self_attn): LlamaAttention(
                  (q_proj): Linear(in_features=4096, out_features=4096, bias=False)
                  (k_proj): Linear(in_features=4096, out_features=4096, bias=False)
                  (v_proj): Linear(in_features=4096, out_features=4096, bias=False)
                  (o_proj): Linear(in_features=4096, out_features=4096, bias=False)
                  (rotary_emb): LlamaRotaryEmbedding()
                )
                (mlp): LlamaMLP(
                  (gate_proj): Linear(in_features=4096, out_features=11008, bias=False)
                  (up_proj): Linear(in_features=4096, out_features=11008, bias=False)
                  (down_proj): Linear(in_features=11008, out_features=4096, bias=False)
                  (act_fn): SiLUActivation()
                )
                (input_layernorm): LlamaRMSNorm()
                (post_attention_layernorm): LlamaRMSNorm()
              )
            )
          )
          (14): FullyShardedDataParallel(
            (_fsdp_wrapped_module): FlattenParamsWrapper(
              (_fpw_module): LlamaDecoderLayer(
                (self_attn): LlamaAttention(
                  (q_proj): Linear(in_features=4096, out_features=4096, bias=False)
                  (k_proj): Linear(in_features=4096, out_features=4096, bias=False)
                  (v_proj): Linear(in_features=4096, out_features=4096, bias=False)
                  (o_proj): Linear(in_features=4096, out_features=4096, bias=False)
                  (rotary_emb): LlamaRotaryEmbedding()
                )
                (mlp): LlamaMLP(
                  (gate_proj): Linear(in_features=4096, out_features=11008, bias=False)
                  (up_proj): Linear(in_features=4096, out_features=11008, bias=False)
                  (down_proj): Linear(in_features=11008, out_features=4096, bias=False)
                  (act_fn): SiLUActivation()
                )
                (input_layernorm): LlamaRMSNorm()
                (post_attention_layernorm): LlamaRMSNorm()
              )
            )
          )
          (15): FullyShardedDataParallel(
            (_fsdp_wrapped_module): FlattenParamsWrapper(
              (_fpw_module): LlamaDecoderLayer(
                (self_attn): LlamaAttention(
                  (q_proj): Linear(in_features=4096, out_features=4096, bias=False)
                  (k_proj): Linear(in_features=4096, out_features=4096, bias=False)
                  (v_proj): Linear(in_features=4096, out_features=4096, bias=False)
                  (o_proj): Linear(in_features=4096, out_features=4096, bias=False)
                  (rotary_emb): LlamaRotaryEmbedding()
                )
                (mlp): LlamaMLP(
                  (gate_proj): Linear(in_features=4096, out_features=11008, bias=False)
                  (up_proj): Linear(in_features=4096, out_features=11008, bias=False)
                  (down_proj): Linear(in_features=11008, out_features=4096, bias=False)
                  (act_fn): SiLUActivation()
                )
                (input_layernorm): LlamaRMSNorm()
                (post_attention_layernorm): LlamaRMSNorm()
              )
            )
          )
          (16): FullyShardedDataParallel(
            (_fsdp_wrapped_module): FlattenParamsWrapper(
              (_fpw_module): LlamaDecoderLayer(
                (self_attn): LlamaAttention(
                  (q_proj): Linear(in_features=4096, out_features=4096, bias=False)
                  (k_proj): Linear(in_features=4096, out_features=4096, bias=False)
                  (v_proj): Linear(in_features=4096, out_features=4096, bias=False)
                  (o_proj): Linear(in_features=4096, out_features=4096, bias=False)
                  (rotary_emb): LlamaRotaryEmbedding()
                )
                (mlp): LlamaMLP(
                  (gate_proj): Linear(in_features=4096, out_features=11008, bias=False)
                  (up_proj): Linear(in_features=4096, out_features=11008, bias=False)
                  (down_proj): Linear(in_features=11008, out_features=4096, bias=False)
                  (act_fn): SiLUActivation()
                )
                (input_layernorm): LlamaRMSNorm()
                (post_attention_layernorm): LlamaRMSNorm()
              )
            )
          )
          (17): FullyShardedDataParallel(
            (_fsdp_wrapped_module): FlattenParamsWrapper(
              (_fpw_module): LlamaDecoderLayer(
                (self_attn): LlamaAttention(
                  (q_proj): Linear(in_features=4096, out_features=4096, bias=False)
                  (k_proj): Linear(in_features=4096, out_features=4096, bias=False)
                  (v_proj): Linear(in_features=4096, out_features=4096, bias=False)
                  (o_proj): Linear(in_features=4096, out_features=4096, bias=False)
                  (rotary_emb): LlamaRotaryEmbedding()
                )
                (mlp): LlamaMLP(
                  (gate_proj): Linear(in_features=4096, out_features=11008, bias=False)
                  (up_proj): Linear(in_features=4096, out_features=11008, bias=False)
                  (down_proj): Linear(in_features=11008, out_features=4096, bias=False)
                  (act_fn): SiLUActivation()
                )
                (input_layernorm): LlamaRMSNorm()
                (post_attention_layernorm): LlamaRMSNorm()
              )
            )
          )
          (18): FullyShardedDataParallel(
            (_fsdp_wrapped_module): FlattenParamsWrapper(
              (_fpw_module): LlamaDecoderLayer(
                (self_attn): LlamaAttention(
                  (q_proj): Linear(in_features=4096, out_features=4096, bias=False)
                  (k_proj): Linear(in_features=4096, out_features=4096, bias=False)
                  (v_proj): Linear(in_features=4096, out_features=4096, bias=False)
                  (o_proj): Linear(in_features=4096, out_features=4096, bias=False)
                  (rotary_emb): LlamaRotaryEmbedding()
                )
                (mlp): LlamaMLP(
                  (gate_proj): Linear(in_features=4096, out_features=11008, bias=False)
                  (up_proj): Linear(in_features=4096, out_features=11008, bias=False)
                  (down_proj): Linear(in_features=11008, out_features=4096, bias=False)
                  (act_fn): SiLUActivation()
                )
                (input_layernorm): LlamaRMSNorm()
                (post_attention_layernorm): LlamaRMSNorm()
              )
            )
          )
          (19): FullyShardedDataParallel(
            (_fsdp_wrapped_module): FlattenParamsWrapper(
              (_fpw_module): LlamaDecoderLayer(
                (self_attn): LlamaAttention(
                  (q_proj): Linear(in_features=4096, out_features=4096, bias=False)
                  (k_proj): Linear(in_features=4096, out_features=4096, bias=False)
                  (v_proj): Linear(in_features=4096, out_features=4096, bias=False)
                  (o_proj): Linear(in_features=4096, out_features=4096, bias=False)
                  (rotary_emb): LlamaRotaryEmbedding()
                )
                (mlp): LlamaMLP(
                  (gate_proj): Linear(in_features=4096, out_features=11008, bias=False)
                  (up_proj): Linear(in_features=4096, out_features=11008, bias=False)
                  (down_proj): Linear(in_features=11008, out_features=4096, bias=False)
                  (act_fn): SiLUActivation()
                )
                (input_layernorm): LlamaRMSNorm()
                (post_attention_layernorm): LlamaRMSNorm()
              )
            )
          )
          (20): FullyShardedDataParallel(
            (_fsdp_wrapped_module): FlattenParamsWrapper(
              (_fpw_module): LlamaDecoderLayer(
                (self_attn): LlamaAttention(
                  (q_proj): Linear(in_features=4096, out_features=4096, bias=False)
                  (k_proj): Linear(in_features=4096, out_features=4096, bias=False)
                  (v_proj): Linear(in_features=4096, out_features=4096, bias=False)
                  (o_proj): Linear(in_features=4096, out_features=4096, bias=False)
                  (rotary_emb): LlamaRotaryEmbedding()
                )
                (mlp): LlamaMLP(
                  (gate_proj): Linear(in_features=4096, out_features=11008, bias=False)
                  (up_proj): Linear(in_features=4096, out_features=11008, bias=False)
                  (down_proj): Linear(in_features=11008, out_features=4096, bias=False)
                  (act_fn): SiLUActivation()
                )
                (input_layernorm): LlamaRMSNorm()
                (post_attention_layernorm): LlamaRMSNorm()
              )
            )
          )
          (21): FullyShardedDataParallel(
            (_fsdp_wrapped_module): FlattenParamsWrapper(
              (_fpw_module): LlamaDecoderLayer(
                (self_attn): LlamaAttention(
                  (q_proj): Linear(in_features=4096, out_features=4096, bias=False)
                  (k_proj): Linear(in_features=4096, out_features=4096, bias=False)
                  (v_proj): Linear(in_features=4096, out_features=4096, bias=False)
                  (o_proj): Linear(in_features=4096, out_features=4096, bias=False)
                  (rotary_emb): LlamaRotaryEmbedding()
                )
                (mlp): LlamaMLP(
                  (gate_proj): Linear(in_features=4096, out_features=11008, bias=False)
                  (up_proj): Linear(in_features=4096, out_features=11008, bias=False)
                  (down_proj): Linear(in_features=11008, out_features=4096, bias=False)
                  (act_fn): SiLUActivation()
                )
                (input_layernorm): LlamaRMSNorm()
                (post_attention_layernorm): LlamaRMSNorm()
              )
            )
          )
          (22): FullyShardedDataParallel(
            (_fsdp_wrapped_module): FlattenParamsWrapper(
              (_fpw_module): LlamaDecoderLayer(
                (self_attn): LlamaAttention(
                  (q_proj): Linear(in_features=4096, out_features=4096, bias=False)
                  (k_proj): Linear(in_features=4096, out_features=4096, bias=False)
                  (v_proj): Linear(in_features=4096, out_features=4096, bias=False)
                  (o_proj): Linear(in_features=4096, out_features=4096, bias=False)
                  (rotary_emb): LlamaRotaryEmbedding()
                )
                (mlp): LlamaMLP(
                  (gate_proj): Linear(in_features=4096, out_features=11008, bias=False)
                  (up_proj): Linear(in_features=4096, out_features=11008, bias=False)
                  (down_proj): Linear(in_features=11008, out_features=4096, bias=False)
                  (act_fn): SiLUActivation()
                )
                (input_layernorm): LlamaRMSNorm()
                (post_attention_layernorm): LlamaRMSNorm()
              )
            )
          )
          (23): FullyShardedDataParallel(
            (_fsdp_wrapped_module): FlattenParamsWrapper(
              (_fpw_module): LlamaDecoderLayer(
                (self_attn): LlamaAttention(
                  (q_proj): Linear(in_features=4096, out_features=4096, bias=False)
                  (k_proj): Linear(in_features=4096, out_features=4096, bias=False)
                  (v_proj): Linear(in_features=4096, out_features=4096, bias=False)
                  (o_proj): Linear(in_features=4096, out_features=4096, bias=False)
                  (rotary_emb): LlamaRotaryEmbedding()
                )
                (mlp): LlamaMLP(
                  (gate_proj): Linear(in_features=4096, out_features=11008, bias=False)
                  (up_proj): Linear(in_features=4096, out_features=11008, bias=False)
                  (down_proj): Linear(in_features=11008, out_features=4096, bias=False)
                  (act_fn): SiLUActivation()
                )
                (input_layernorm): LlamaRMSNorm()
                (post_attention_layernorm): LlamaRMSNorm()
              )
            )
          )
          (24): FullyShardedDataParallel(
            (_fsdp_wrapped_module): FlattenParamsWrapper(
              (_fpw_module): LlamaDecoderLayer(
                (self_attn): LlamaAttention(
                  (q_proj): Linear(in_features=4096, out_features=4096, bias=False)
                  (k_proj): Linear(in_features=4096, out_features=4096, bias=False)
                  (v_proj): Linear(in_features=4096, out_features=4096, bias=False)
                  (o_proj): Linear(in_features=4096, out_features=4096, bias=False)
                  (rotary_emb): LlamaRotaryEmbedding()
                )
                (mlp): LlamaMLP(
                  (gate_proj): Linear(in_features=4096, out_features=11008, bias=False)
                  (up_proj): Linear(in_features=4096, out_features=11008, bias=False)
                  (down_proj): Linear(in_features=11008, out_features=4096, bias=False)
                  (act_fn): SiLUActivation()
                )
                (input_layernorm): LlamaRMSNorm()
                (post_attention_layernorm): LlamaRMSNorm()
              )
            )
          )
          (25): FullyShardedDataParallel(
            (_fsdp_wrapped_module): FlattenParamsWrapper(
              (_fpw_module): LlamaDecoderLayer(
                (self_attn): LlamaAttention(
                  (q_proj): Linear(in_features=4096, out_features=4096, bias=False)
                  (k_proj): Linear(in_features=4096, out_features=4096, bias=False)
                  (v_proj): Linear(in_features=4096, out_features=4096, bias=False)
                  (o_proj): Linear(in_features=4096, out_features=4096, bias=False)
                  (rotary_emb): LlamaRotaryEmbedding()
                )
                (mlp): LlamaMLP(
                  (gate_proj): Linear(in_features=4096, out_features=11008, bias=False)
                  (up_proj): Linear(in_features=4096, out_features=11008, bias=False)
                  (down_proj): Linear(in_features=11008, out_features=4096, bias=False)
                  (act_fn): SiLUActivation()
                )
                (input_layernorm): LlamaRMSNorm()
                (post_attention_layernorm): LlamaRMSNorm()
              )
            )
          )
          (26): FullyShardedDataParallel(
            (_fsdp_wrapped_module): FlattenParamsWrapper(
              (_fpw_module): LlamaDecoderLayer(
                (self_attn): LlamaAttention(
                  (q_proj): Linear(in_features=4096, out_features=4096, bias=False)
                  (k_proj): Linear(in_features=4096, out_features=4096, bias=False)
                  (v_proj): Linear(in_features=4096, out_features=4096, bias=False)
                  (o_proj): Linear(in_features=4096, out_features=4096, bias=False)
                  (rotary_emb): LlamaRotaryEmbedding()
                )
                (mlp): LlamaMLP(
                  (gate_proj): Linear(in_features=4096, out_features=11008, bias=False)
                  (up_proj): Linear(in_features=4096, out_features=11008, bias=False)
                  (down_proj): Linear(in_features=11008, out_features=4096, bias=False)
                  (act_fn): SiLUActivation()
                )
                (input_layernorm): LlamaRMSNorm()
                (post_attention_layernorm): LlamaRMSNorm()
              )
            )
          )
          (27): FullyShardedDataParallel(
            (_fsdp_wrapped_module): FlattenParamsWrapper(
              (_fpw_module): LlamaDecoderLayer(
                (self_attn): LlamaAttention(
                  (q_proj): Linear(in_features=4096, out_features=4096, bias=False)
                  (k_proj): Linear(in_features=4096, out_features=4096, bias=False)
                  (v_proj): Linear(in_features=4096, out_features=4096, bias=False)
                  (o_proj): Linear(in_features=4096, out_features=4096, bias=False)
                  (rotary_emb): LlamaRotaryEmbedding()
                )
                (mlp): LlamaMLP(
                  (gate_proj): Linear(in_features=4096, out_features=11008, bias=False)
                  (up_proj): Linear(in_features=4096, out_features=11008, bias=False)
                  (down_proj): Linear(in_features=11008, out_features=4096, bias=False)
                  (act_fn): SiLUActivation()
                )
                (input_layernorm): LlamaRMSNorm()
                (post_attention_layernorm): LlamaRMSNorm()
              )
            )
          )
          (28): FullyShardedDataParallel(
            (_fsdp_wrapped_module): FlattenParamsWrapper(
              (_fpw_module): LlamaDecoderLayer(
                (self_attn): LlamaAttention(
                  (q_proj): Linear(in_features=4096, out_features=4096, bias=False)
                  (k_proj): Linear(in_features=4096, out_features=4096, bias=False)
                  (v_proj): Linear(in_features=4096, out_features=4096, bias=False)
                  (o_proj): Linear(in_features=4096, out_features=4096, bias=False)
                  (rotary_emb): LlamaRotaryEmbedding()
                )
                (mlp): LlamaMLP(
                  (gate_proj): Linear(in_features=4096, out_features=11008, bias=False)
                  (up_proj): Linear(in_features=4096, out_features=11008, bias=False)
                  (down_proj): Linear(in_features=11008, out_features=4096, bias=False)
                  (act_fn): SiLUActivation()
                )
                (input_layernorm): LlamaRMSNorm()
                (post_attention_layernorm): LlamaRMSNorm()
              )
            )
          )
          (29): FullyShardedDataParallel(
            (_fsdp_wrapped_module): FlattenParamsWrapper(
              (_fpw_module): LlamaDecoderLayer(
                (self_attn): LlamaAttention(
                  (q_proj): Linear(in_features=4096, out_features=4096, bias=False)
                  (k_proj): Linear(in_features=4096, out_features=4096, bias=False)
                  (v_proj): Linear(in_features=4096, out_features=4096, bias=False)
                  (o_proj): Linear(in_features=4096, out_features=4096, bias=False)
                  (rotary_emb): LlamaRotaryEmbedding()
                )
                (mlp): LlamaMLP(
                  (gate_proj): Linear(in_features=4096, out_features=11008, bias=False)
                  (up_proj): Linear(in_features=4096, out_features=11008, bias=False)
                  (down_proj): Linear(in_features=11008, out_features=4096, bias=False)
                  (act_fn): SiLUActivation()
                )
                (input_layernorm): LlamaRMSNorm()
                (post_attention_layernorm): LlamaRMSNorm()
              )
            )
          )
          (30): FullyShardedDataParallel(
            (_fsdp_wrapped_module): FlattenParamsWrapper(
              (_fpw_module): LlamaDecoderLayer(
                (self_attn): LlamaAttention(
                  (q_proj): Linear(in_features=4096, out_features=4096, bias=False)
                  (k_proj): Linear(in_features=4096, out_features=4096, bias=False)
                  (v_proj): Linear(in_features=4096, out_features=4096, bias=False)
                  (o_proj): Linear(in_features=4096, out_features=4096, bias=False)
                  (rotary_emb): LlamaRotaryEmbedding()
                )
                (mlp): LlamaMLP(
                  (gate_proj): Linear(in_features=4096, out_features=11008, bias=False)
                  (up_proj): Linear(in_features=4096, out_features=11008, bias=False)
                  (down_proj): Linear(in_features=11008, out_features=4096, bias=False)
                  (act_fn): SiLUActivation()
                )
                (input_layernorm): LlamaRMSNorm()
                (post_attention_layernorm): LlamaRMSNorm()
              )
            )
          )
          (31): FullyShardedDataParallel(
            (_fsdp_wrapped_module): FlattenParamsWrapper(
              (_fpw_module): LlamaDecoderLayer(
                (self_attn): LlamaAttention(
                  (q_proj): Linear(in_features=4096, out_features=4096, bias=False)
                  (k_proj): Linear(in_features=4096, out_features=4096, bias=False)
                  (v_proj): Linear(in_features=4096, out_features=4096, bias=False)
                  (o_proj): Linear(in_features=4096, out_features=4096, bias=False)
                  (rotary_emb): LlamaRotaryEmbedding()
                )
                (mlp): LlamaMLP(
                  (gate_proj): Linear(in_features=4096, out_features=11008, bias=False)
                  (up_proj): Linear(in_features=4096, out_features=11008, bias=False)
                  (down_proj): Linear(in_features=11008, out_features=4096, bias=False)
                  (act_fn): SiLUActivation()
                )
                (input_layernorm): LlamaRMSNorm()
                (post_attention_layernorm): LlamaRMSNorm()
              )
            )
          )
        )
        (norm): LlamaRMSNorm()
      )
      (lm_head): Linear(in_features=4096, out_features=32001, bias=False)
    )
  )
)
/home/lanxiang/anaconda3/envs/llm_train/lib/python3.9/site-packages/torch/distributed/distributed_c10d.py:2387: UserWarning: torch.distributed._all_gather_base is a private function and will be deprecated. Please use torch.distributed.all_gather_into_tensor instead.
  warnings.warn(
/home/lanxiang/anaconda3/envs/llm_train/lib/python3.9/site-packages/transformers/optimization.py:411: FutureWarning: This implementation of AdamW is deprecated and will be removed in a future version. Use the PyTorch implementation torch.optim.AdamW instead, or set `no_deprecation_warning=True` to disable this warning
  warnings.warn(
FullyShardedDataParallel(
  (_fsdp_wrapped_module): FlattenParamsWrapper(
    (_fpw_module): LlamaForCausalLM(
      (model): LlamaModel(
        (embed_tokens): Embedding(32001, 4096)
        (layers): ModuleList(
          (0): FullyShardedDataParallel(
            (_fsdp_wrapped_module): FlattenParamsWrapper(
              (_fpw_module): LlamaDecoderLayer(
                (self_attn): LlamaAttention(
                  (q_proj): Linear(in_features=4096, out_features=4096, bias=False)
                  (k_proj): Linear(in_features=4096, out_features=4096, bias=False)
                  (v_proj): Linear(in_features=4096, out_features=4096, bias=False)
                  (o_proj): Linear(in_features=4096, out_features=4096, bias=False)
                  (rotary_emb): LlamaRotaryEmbedding()
                )
                (mlp): LlamaMLP(
                  (gate_proj): Linear(in_features=4096, out_features=11008, bias=False)
                  (up_proj): Linear(in_features=4096, out_features=11008, bias=False)
                  (down_proj): Linear(in_features=11008, out_features=4096, bias=False)
                  (act_fn): SiLUActivation()
                )
                (input_layernorm): LlamaRMSNorm()
                (post_attention_layernorm): LlamaRMSNorm()
              )
            )
          )
          (1): FullyShardedDataParallel(
            (_fsdp_wrapped_module): FlattenParamsWrapper(
              (_fpw_module): LlamaDecoderLayer(
                (self_attn): LlamaAttention(
                  (q_proj): Linear(in_features=4096, out_features=4096, bias=False)
                  (k_proj): Linear(in_features=4096, out_features=4096, bias=False)
                  (v_proj): Linear(in_features=4096, out_features=4096, bias=False)
                  (o_proj): Linear(in_features=4096, out_features=4096, bias=False)
                  (rotary_emb): LlamaRotaryEmbedding()
                )
                (mlp): LlamaMLP(
                  (gate_proj): Linear(in_features=4096, out_features=11008, bias=False)
                  (up_proj): Linear(in_features=4096, out_features=11008, bias=False)
                  (down_proj): Linear(in_features=11008, out_features=4096, bias=False)
                  (act_fn): SiLUActivation()
                )
                (input_layernorm): LlamaRMSNorm()
                (post_attention_layernorm): LlamaRMSNorm()
              )
            )
          )
          (2): FullyShardedDataParallel(
            (_fsdp_wrapped_module): FlattenParamsWrapper(
              (_fpw_module): LlamaDecoderLayer(
                (self_attn): LlamaAttention(
                  (q_proj): Linear(in_features=4096, out_features=4096, bias=False)
                  (k_proj): Linear(in_features=4096, out_features=4096, bias=False)
                  (v_proj): Linear(in_features=4096, out_features=4096, bias=False)
                  (o_proj): Linear(in_features=4096, out_features=4096, bias=False)
                  (rotary_emb): LlamaRotaryEmbedding()
                )
                (mlp): LlamaMLP(
                  (gate_proj): Linear(in_features=4096, out_features=11008, bias=False)
                  (up_proj): Linear(in_features=4096, out_features=11008, bias=False)
                  (down_proj): Linear(in_features=11008, out_features=4096, bias=False)
                  (act_fn): SiLUActivation()
                )
                (input_layernorm): LlamaRMSNorm()
                (post_attention_layernorm): LlamaRMSNorm()
              )
            )
          )
          (3): FullyShardedDataParallel(
            (_fsdp_wrapped_module): FlattenParamsWrapper(
              (_fpw_module): LlamaDecoderLayer(
                (self_attn): LlamaAttention(
                  (q_proj): Linear(in_features=4096, out_features=4096, bias=False)
                  (k_proj): Linear(in_features=4096, out_features=4096, bias=False)
                  (v_proj): Linear(in_features=4096, out_features=4096, bias=False)
                  (o_proj): Linear(in_features=4096, out_features=4096, bias=False)
                  (rotary_emb): LlamaRotaryEmbedding()
                )
                (mlp): LlamaMLP(
                  (gate_proj): Linear(in_features=4096, out_features=11008, bias=False)
                  (up_proj): Linear(in_features=4096, out_features=11008, bias=False)
                  (down_proj): Linear(in_features=11008, out_features=4096, bias=False)
                  (act_fn): SiLUActivation()
                )
                (input_layernorm): LlamaRMSNorm()
                (post_attention_layernorm): LlamaRMSNorm()
              )
            )
          )
          (4): FullyShardedDataParallel(
            (_fsdp_wrapped_module): FlattenParamsWrapper(
              (_fpw_module): LlamaDecoderLayer(
                (self_attn): LlamaAttention(
                  (q_proj): Linear(in_features=4096, out_features=4096, bias=False)
                  (k_proj): Linear(in_features=4096, out_features=4096, bias=False)
                  (v_proj): Linear(in_features=4096, out_features=4096, bias=False)
                  (o_proj): Linear(in_features=4096, out_features=4096, bias=False)
                  (rotary_emb): LlamaRotaryEmbedding()
                )
                (mlp): LlamaMLP(
                  (gate_proj): Linear(in_features=4096, out_features=11008, bias=False)
                  (up_proj): Linear(in_features=4096, out_features=11008, bias=False)
                  (down_proj): Linear(in_features=11008, out_features=4096, bias=False)
                  (act_fn): SiLUActivation()
                )
                (input_layernorm): LlamaRMSNorm()
                (post_attention_layernorm): LlamaRMSNorm()
              )
            )
          )
          (5): FullyShardedDataParallel(
            (_fsdp_wrapped_module): FlattenParamsWrapper(
              (_fpw_module): LlamaDecoderLayer(
                (self_attn): LlamaAttention(
                  (q_proj): Linear(in_features=4096, out_features=4096, bias=False)
                  (k_proj): Linear(in_features=4096, out_features=4096, bias=False)
                  (v_proj): Linear(in_features=4096, out_features=4096, bias=False)
                  (o_proj): Linear(in_features=4096, out_features=4096, bias=False)
                  (rotary_emb): LlamaRotaryEmbedding()
                )
                (mlp): LlamaMLP(
                  (gate_proj): Linear(in_features=4096, out_features=11008, bias=False)
                  (up_proj): Linear(in_features=4096, out_features=11008, bias=False)
                  (down_proj): Linear(in_features=11008, out_features=4096, bias=False)
                  (act_fn): SiLUActivation()
                )
                (input_layernorm): LlamaRMSNorm()
                (post_attention_layernorm): LlamaRMSNorm()
              )
            )
          )
          (6): FullyShardedDataParallel(
            (_fsdp_wrapped_module): FlattenParamsWrapper(
              (_fpw_module): LlamaDecoderLayer(
                (self_attn): LlamaAttention(
                  (q_proj): Linear(in_features=4096, out_features=4096, bias=False)
                  (k_proj): Linear(in_features=4096, out_features=4096, bias=False)
                  (v_proj): Linear(in_features=4096, out_features=4096, bias=False)
                  (o_proj): Linear(in_features=4096, out_features=4096, bias=False)
                  (rotary_emb): LlamaRotaryEmbedding()
                )
                (mlp): LlamaMLP(
                  (gate_proj): Linear(in_features=4096, out_features=11008, bias=False)
                  (up_proj): Linear(in_features=4096, out_features=11008, bias=False)
                  (down_proj): Linear(in_features=11008, out_features=4096, bias=False)
                  (act_fn): SiLUActivation()
                )
                (input_layernorm): LlamaRMSNorm()
                (post_attention_layernorm): LlamaRMSNorm()
              )
            )
          )
          (7): FullyShardedDataParallel(
            (_fsdp_wrapped_module): FlattenParamsWrapper(
              (_fpw_module): LlamaDecoderLayer(
                (self_attn): LlamaAttention(
                  (q_proj): Linear(in_features=4096, out_features=4096, bias=False)
                  (k_proj): Linear(in_features=4096, out_features=4096, bias=False)
                  (v_proj): Linear(in_features=4096, out_features=4096, bias=False)
                  (o_proj): Linear(in_features=4096, out_features=4096, bias=False)
                  (rotary_emb): LlamaRotaryEmbedding()
                )
                (mlp): LlamaMLP(
                  (gate_proj): Linear(in_features=4096, out_features=11008, bias=False)
                  (up_proj): Linear(in_features=4096, out_features=11008, bias=False)
                  (down_proj): Linear(in_features=11008, out_features=4096, bias=False)
                  (act_fn): SiLUActivation()
                )
                (input_layernorm): LlamaRMSNorm()
                (post_attention_layernorm): LlamaRMSNorm()
              )
            )
          )
          (8): FullyShardedDataParallel(
            (_fsdp_wrapped_module): FlattenParamsWrapper(
              (_fpw_module): LlamaDecoderLayer(
                (self_attn): LlamaAttention(
                  (q_proj): Linear(in_features=4096, out_features=4096, bias=False)
                  (k_proj): Linear(in_features=4096, out_features=4096, bias=False)
                  (v_proj): Linear(in_features=4096, out_features=4096, bias=False)
                  (o_proj): Linear(in_features=4096, out_features=4096, bias=False)
                  (rotary_emb): LlamaRotaryEmbedding()
                )
                (mlp): LlamaMLP(
                  (gate_proj): Linear(in_features=4096, out_features=11008, bias=False)
                  (up_proj): Linear(in_features=4096, out_features=11008, bias=False)
                  (down_proj): Linear(in_features=11008, out_features=4096, bias=False)
                  (act_fn): SiLUActivation()
                )
                (input_layernorm): LlamaRMSNorm()
                (post_attention_layernorm): LlamaRMSNorm()
              )
            )
          )
          (9): FullyShardedDataParallel(
            (_fsdp_wrapped_module): FlattenParamsWrapper(
              (_fpw_module): LlamaDecoderLayer(
                (self_attn): LlamaAttention(
                  (q_proj): Linear(in_features=4096, out_features=4096, bias=False)
                  (k_proj): Linear(in_features=4096, out_features=4096, bias=False)
                  (v_proj): Linear(in_features=4096, out_features=4096, bias=False)
                  (o_proj): Linear(in_features=4096, out_features=4096, bias=False)
                  (rotary_emb): LlamaRotaryEmbedding()
                )
                (mlp): LlamaMLP(
                  (gate_proj): Linear(in_features=4096, out_features=11008, bias=False)
                  (up_proj): Linear(in_features=4096, out_features=11008, bias=False)
                  (down_proj): Linear(in_features=11008, out_features=4096, bias=False)
                  (act_fn): SiLUActivation()
                )
                (input_layernorm): LlamaRMSNorm()
                (post_attention_layernorm): LlamaRMSNorm()
              )
            )
          )
          (10): FullyShardedDataParallel(
            (_fsdp_wrapped_module): FlattenParamsWrapper(
              (_fpw_module): LlamaDecoderLayer(
                (self_attn): LlamaAttention(
                  (q_proj): Linear(in_features=4096, out_features=4096, bias=False)
                  (k_proj): Linear(in_features=4096, out_features=4096, bias=False)
                  (v_proj): Linear(in_features=4096, out_features=4096, bias=False)
                  (o_proj): Linear(in_features=4096, out_features=4096, bias=False)
                  (rotary_emb): LlamaRotaryEmbedding()
                )
                (mlp): LlamaMLP(
                  (gate_proj): Linear(in_features=4096, out_features=11008, bias=False)
…
                  (v_proj): Linear(in_features=4096, out_features=4096, bias=False)
                  (o_proj): Linear(in_features=4096, out_features=4096, bias=False)
                  (rotary_emb): LlamaRotaryEmbedding()
                )
                (mlp): LlamaMLP(
                  (gate_proj): Linear(in_features=4096, out_features=11008, bias=False)
                  (up_proj): Linear(in_features=4096, out_features=11008, bias=False)
                  (down_proj): Linear(in_features=11008, out_features=4096, bias=False)
                  (act_fn): SiLUActivation()
                )
                (input_layernorm): LlamaRMSNorm()
                (post_attention_layernorm): LlamaRMSNorm()
              )
            )
          )
          (21): FullyShardedDataParallel(
            (_fsdp_wrapped_module): FlattenParamsWrapper(
              (_fpw_module): LlamaDecoderLayer(
                (self_attn): LlamaAttention(
                  (q_proj): Linear(in_features=4096, out_features=4096, bias=False)
                  (k_proj): Linear(in_features=4096, out_features=4096, bias=False)
                  (v_proj): Linear(in_features=4096, out_features=4096, bias=False)
                  (o_proj): Linear(in_features=4096, out_features=4096, bias=False)
                  (rotary_emb): LlamaRotaryEmbedding()
                )
                (mlp): LlamaMLP(
                  (gate_proj): Linear(in_features=4096, out_features=11008, bias=False)
                  (up_proj): Linear(in_features=4096, out_features=11008, bias=False)
                  (down_proj): Linear(in_features=11008, out_features=4096, bias=False)
                  (act_fn): SiLUActivation()
                )
                (input_layernorm): LlamaRMSNorm()
                (post_attention_layernorm): LlamaRMSNorm()
              )
            )
          )
          (22): FullyShardedDataParallel(
            (_fsdp_wrapped_module): FlattenParamsWrapper(
              (_fpw_module): LlamaDecoderLayer(
                (self_attn): LlamaAttention(
                  (q_proj): Linear(in_features=4096, out_features=4096, bias=False)
                  (k_proj): Linear(in_features=4096, out_features=4096, bias=False)
                  (v_proj): Linear(in_features=4096, out_features=4096, bias=False)
                  (o_proj): Linear(in_features=4096, out_features=4096, bias=False)
                  (rotary_emb): LlamaRotaryEmbedding()
                )
                (mlp): LlamaMLP(
                  (gate_proj): Linear(in_features=4096, out_features=11008, bias=False)
                  (up_proj): Linear(in_features=4096, out_features=11008, bias=False)
                  (down_proj): Linear(in_features=11008, out_features=4096, bias=False)
                  (act_fn): SiLUActivation()
                )
                (input_layernorm): LlamaRMSNorm()
                (post_attention_layernorm): LlamaRMSNorm()
              )
            )
          )
          (23): FullyShardedDataParallel(
            (_fsdp_wrapped_module): FlattenParamsWrapper(
              (_fpw_module): LlamaDecoderLayer(
                (self_attn): LlamaAttention(
                  (q_proj): Linear(in_features=4096, out_features=4096, bias=False)
                  (k_proj): Linear(in_features=4096, out_features=4096, bias=False)
                  (v_proj): Linear(in_features=4096, out_features=4096, bias=False)
                  (o_proj): Linear(in_features=4096, out_features=4096, bias=False)
                  (rotary_emb): LlamaRotaryEmbedding()
                )
                (mlp): LlamaMLP(
                  (gate_proj): Linear(in_features=4096, out_features=11008, bias=False)
                  (up_proj): Linear(in_features=4096, out_features=11008, bias=False)
                  (down_proj): Linear(in_features=11008, out_features=4096, bias=False)
                  (act_fn): SiLUActivation()
                )
                (input_layernorm): LlamaRMSNorm()
                (post_attention_layernorm): LlamaRMSNorm()
              )
            )
          )
          (24): FullyShardedDataParallel(
            (_fsdp_wrapped_module): FlattenParamsWrapper(
              (_fpw_module): LlamaDecoderLayer(
                (self_attn): LlamaAttention(
                  (q_proj): Linear(in_features=4096, out_features=4096, bias=False)
                  (k_proj): Linear(in_features=4096, out_features=4096, bias=False)
                  (v_proj): Linear(in_features=4096, out_features=4096, bias=False)
                  (o_proj): Linear(in_features=4096, out_features=4096, bias=False)
                  (rotary_emb): LlamaRotaryEmbedding()
                )
                (mlp): LlamaMLP(
                  (gate_proj): Linear(in_features=4096, out_features=11008, bias=False)
                  (up_proj): Linear(in_features=4096, out_features=11008, bias=False)
                  (down_proj): Linear(in_features=11008, out_features=4096, bias=False)
                  (act_fn): SiLUActivation()
                )
                (input_layernorm): LlamaRMSNorm()
                (post_attention_layernorm): LlamaRMSNorm()
              )
            )
          )
          (25): FullyShardedDataParallel(
            (_fsdp_wrapped_module): FlattenParamsWrapper(
              (_fpw_module): LlamaDecoderLayer(
                (self_attn): LlamaAttention(
                  (q_proj): Linear(in_features=4096, out_features=4096, bias=False)
                  (k_proj): Linear(in_features=4096, out_features=4096, bias=False)
                  (v_proj): Linear(in_features=4096, out_features=4096, bias=False)
                  (o_proj): Linear(in_features=4096, out_features=4096, bias=False)
                  (rotary_emb): LlamaRotaryEmbedding()
                )
                (mlp): LlamaMLP(
                  (gate_proj): Linear(in_features=4096, out_features=11008, bias=False)
                  (up_proj): Linear(in_features=4096, out_features=11008, bias=False)
                  (down_proj): Linear(in_features=11008, out_features=4096, bias=False)
                  (act_fn): SiLUActivation()
                )
                (input_layernorm): LlamaRMSNorm()
                (post_attention_layernorm): LlamaRMSNorm()
              )
            )
          )
          (26): FullyShardedDataParallel(
            (_fsdp_wrapped_module): FlattenParamsWrapper(
              (_fpw_module): LlamaDecoderLayer(
                (self_attn): LlamaAttention(
                  (q_proj): Linear(in_features=4096, out_features=4096, bias=False)
                  (k_proj): Linear(in_features=4096, out_features=4096, bias=False)
                  (v_proj): Linear(in_features=4096, out_features=4096, bias=False)
                  (o_proj): Linear(in_features=4096, out_features=4096, bias=False)
                  (rotary_emb): LlamaRotaryEmbedding()
                )
                (mlp): LlamaMLP(
                  (gate_proj): Linear(in_features=4096, out_features=11008, bias=False)
                  (up_proj): Linear(in_features=4096, out_features=11008, bias=False)
                  (down_proj): Linear(in_features=11008, out_features=4096, bias=False)
                  (act_fn): SiLUActivation()
                )
                (input_layernorm): LlamaRMSNorm()
                (post_attention_layernorm): LlamaRMSNorm()
              )
            )
          )
          (27): FullyShardedDataParallel(
            (_fsdp_wrapped_module): FlattenParamsWrapper(
              (_fpw_module): LlamaDecoderLayer(
                (self_attn): LlamaAttention(
                  (q_proj): Linear(in_features=4096, out_features=4096, bias=False)
                  (k_proj): Linear(in_features=4096, out_features=4096, bias=False)
                  (v_proj): Linear(in_features=4096, out_features=4096, bias=False)
                  (o_proj): Linear(in_features=4096, out_features=4096, bias=False)
                  (rotary_emb): LlamaRotaryEmbedding()
                )
                (mlp): LlamaMLP(
                  (gate_proj): Linear(in_features=4096, out_features=11008, bias=False)
                  (up_proj): Linear(in_features=4096, out_features=11008, bias=False)
                  (down_proj): Linear(in_features=11008, out_features=4096, bias=False)
                  (act_fn): SiLUActivation()
                )
                (input_layernorm): LlamaRMSNorm()
                (post_attention_layernorm): LlamaRMSNorm()
              )
            )
          )
          (28): FullyShardedDataParallel(
            (_fsdp_wrapped_module): FlattenParamsWrapper(
              (_fpw_module): LlamaDecoderLayer(
                (self_attn): LlamaAttention(
                  (q_proj): Linear(in_features=4096, out_features=4096, bias=False)
                  (k_proj): Linear(in_features=4096, out_features=4096, bias=False)
                  (v_proj): Linear(in_features=4096, out_features=4096, bias=False)
                  (o_proj): Linear(in_features=4096, out_features=4096, bias=False)
                  (rotary_emb): LlamaRotaryEmbedding()
                )
                (mlp): LlamaMLP(
                  (gate_proj): Linear(in_features=4096, out_features=11008, bias=False)
                  (up_proj): Linear(in_features=4096, out_features=11008, bias=False)
                  (down_proj): Linear(in_features=11008, out_features=4096, bias=False)
                  (act_fn): SiLUActivation()
                )
                (input_layernorm): LlamaRMSNorm()
                (post_attention_layernorm): LlamaRMSNorm()
              )
            )
          )
          (29): FullyShardedDataParallel(
            (_fsdp_wrapped_module): FlattenParamsWrapper(
              (_fpw_module): LlamaDecoderLayer(
                (self_attn): LlamaAttention(
                  (q_proj): Linear(in_features=4096, out_features=4096, bias=False)
                  (k_proj): Linear(in_features=4096, out_features=4096, bias=False)
                  (v_proj): Linear(in_features=4096, out_features=4096, bias=False)
                  (o_proj): Linear(in_features=4096, out_features=4096, bias=False)
                  (rotary_emb): LlamaRotaryEmbedding()
                )
                (mlp): LlamaMLP(
                  (gate_proj): Linear(in_features=4096, out_features=11008, bias=False)
                  (up_proj): Linear(in_features=4096, out_features=11008, bias=False)
                  (down_proj): Linear(in_features=11008, out_features=4096, bias=False)
                  (act_fn): SiLUActivation()
                )
                (input_layernorm): LlamaRMSNorm()
                (post_attention_layernorm): LlamaRMSNorm()
              )
            )
          )
          (30): FullyShardedDataParallel(
            (_fsdp_wrapped_module): FlattenParamsWrapper(
              (_fpw_module): LlamaDecoderLayer(
                (self_attn): LlamaAttention(
                  (q_proj): Linear(in_features=4096, out_features=4096, bias=False)
                  (k_proj): Linear(in_features=4096, out_features=4096, bias=False)
                  (v_proj): Linear(in_features=4096, out_features=4096, bias=False)
                  (o_proj): Linear(in_features=4096, out_features=4096, bias=False)
                  (rotary_emb): LlamaRotaryEmbedding()
                )
                (mlp): LlamaMLP(
                  (gate_proj): Linear(in_features=4096, out_features=11008, bias=False)
                  (up_proj): Linear(in_features=4096, out_features=11008, bias=False)
                  (down_proj): Linear(in_features=11008, out_features=4096, bias=False)
                  (act_fn): SiLUActivation()
                )
                (input_layernorm): LlamaRMSNorm()
                (post_attention_layernorm): LlamaRMSNorm()
              )
            )
          )
          (31): FullyShardedDataParallel(
            (_fsdp_wrapped_module): FlattenParamsWrapper(
              (_fpw_module): LlamaDecoderLayer(
                (self_attn): LlamaAttention(
                  (q_proj): Linear(in_features=4096, out_features=4096, bias=False)
                  (k_proj): Linear(in_features=4096, out_features=4096, bias=False)
                  (v_proj): Linear(in_features=4096, out_features=4096, bias=False)
                  (o_proj): Linear(in_features=4096, out_features=4096, bias=False)
                  (rotary_emb): LlamaRotaryEmbedding()
                )
                (mlp): LlamaMLP(
                  (gate_proj): Linear(in_features=4096, out_features=11008, bias=False)
                  (up_proj): Linear(in_features=4096, out_features=11008, bias=False)
                  (down_proj): Linear(in_features=11008, out_features=4096, bias=False)
                  (act_fn): SiLUActivation()
                )
                (input_layernorm): LlamaRMSNorm()
                (post_attention_layernorm): LlamaRMSNorm()
              )
            )
          )
        )
        (norm): LlamaRMSNorm()
      )
      (lm_head): Linear(in_features=4096, out_features=32001, bias=False)
    )
  )
)
/home/lanxiang/anaconda3/envs/llm_train/lib/python3.9/site-packages/torch/distributed/distributed_c10d.py:2387: UserWarning: torch.distributed._all_gather_base is a private function and will be deprecated. Please use torch.distributed.all_gather_into_tensor instead.
  warnings.warn(
/home/lanxiang/anaconda3/envs/llm_train/lib/python3.9/site-packages/transformers/optimization.py:411: FutureWarning: This implementation of AdamW is deprecated and will be removed in a future version. Use the PyTorch implementation torch.optim.AdamW instead, or set `no_deprecation_warning=True` to disable this warning
  warnings.warn(
FullyShardedDataParallel(
  (_fsdp_wrapped_module): FlattenParamsWrapper(
    (_fpw_module): LlamaForCausalLM(
      (model): LlamaModel(
        (embed_tokens): Embedding(32001, 4096)
        (layers): ModuleList(
          (0): FullyShardedDataParallel(
            (_fsdp_wrapped_module): FlattenParamsWrapper(
              (_fpw_module): LlamaDecoderLayer(
                (self_attn): LlamaAttention(
                  (q_proj): Linear(in_features=4096, out_features=4096, bias=False)
                  (k_proj): Linear(in_features=4096, out_features=4096, bias=False)
                  (v_proj): Linear(in_features=4096, out_features=4096, bias=False)
                  (o_proj): Linear(in_features=4096, out_features=4096, bias=False)
                  (rotary_emb): LlamaRotaryEmbedding()
                )
                (mlp): LlamaMLP(
                  (gate_proj): Linear(in_features=4096, out_features=11008, bias=False)
                  (up_proj): Linear(in_features=4096, out_features=11008, bias=False)
                  (down_proj): Linear(in_features=11008, out_features=4096, bias=False)
                  (act_fn): SiLUActivation()
                )
                (input_layernorm): LlamaRMSNorm()
                (post_attention_layernorm): LlamaRMSNorm()
              )
            )
          )
          (1): FullyShardedDataParallel(
            (_fsdp_wrapped_module): FlattenParamsWrapper(
              (_fpw_module): LlamaDecoderLayer(
                (self_attn): LlamaAttention(
                  (q_proj): Linear(in_features=4096, out_features=4096, bias=False)
                  (k_proj): Linear(in_features=4096, out_features=4096, bias=False)
                  (v_proj): Linear(in_features=4096, out_features=4096, bias=False)
                  (o_proj): Linear(in_features=4096, out_features=4096, bias=False)
                  (rotary_emb): LlamaRotaryEmbedding()
                )
                (mlp): LlamaMLP(
                  (gate_proj): Linear(in_features=4096, out_features=11008, bias=False)
                  (up_proj): Linear(in_features=4096, out_features=11008, bias=False)
                  (down_proj): Linear(in_features=11008, out_features=4096, bias=False)
                  (act_fn): SiLUActivation()
                )
                (input_layernorm): LlamaRMSNorm()
                (post_attention_layernorm): LlamaRMSNorm()
              )
            )
          )
          (2): FullyShardedDataParallel(
            (_fsdp_wrapped_module): FlattenParamsWrapper(
              (_fpw_module): LlamaDecoderLayer(
                (self_attn): LlamaAttention(
                  (q_proj): Linear(in_features=4096, out_features=4096, bias=False)
                  (k_proj): Linear(in_features=4096, out_features=4096, bias=False)
                  (v_proj): Linear(in_features=4096, out_features=4096, bias=False)
                  (o_proj): Linear(in_features=4096, out_features=4096, bias=False)
                  (rotary_emb): LlamaRotaryEmbedding()
                )
                (mlp): LlamaMLP(
                  (gate_proj): Linear(in_features=4096, out_features=11008, bias=False)
                  (up_proj): Linear(in_features=4096, out_features=11008, bias=False)
                  (down_proj): Linear(in_features=11008, out_features=4096, bias=False)
                  (act_fn): SiLUActivation()
                )
                (input_layernorm): LlamaRMSNorm()
                (post_attention_layernorm): LlamaRMSNorm()
              )
            )
          )
          (3): FullyShardedDataParallel(
            (_fsdp_wrapped_module): FlattenParamsWrapper(
              (_fpw_module): LlamaDecoderLayer(
                (self_attn): LlamaAttention(
                  (q_proj): Linear(in_features=4096, out_features=4096, bias=False)
                  (k_proj): Linear(in_features=4096, out_features=4096, bias=False)
                  (v_proj): Linear(in_features=4096, out_features=4096, bias=False)
                  (o_proj): Linear(in_features=4096, out_features=4096, bias=False)
                  (rotary_emb): LlamaRotaryEmbedding()
                )
                (mlp): LlamaMLP(
                  (gate_proj): Linear(in_features=4096, out_features=11008, bias=False)
                  (up_proj): Linear(in_features=4096, out_features=11008, bias=False)
                  (down_proj): Linear(in_features=11008, out_features=4096, bias=False)
                  (act_fn): SiLUActivation()
                )
                (input_layernorm): LlamaRMSNorm()
                (post_attention_layernorm): LlamaRMSNorm()
              )
            )
          )
          (4): FullyShardedDataParallel(
            (_fsdp_wrapped_module): FlattenParamsWrapper(
              (_fpw_module): LlamaDecoderLayer(
                (self_attn): LlamaAttention(
                  (q_proj): Linear(in_features=4096, out_features=4096, bias=False)
                  (k_proj): Linear(in_features=4096, out_features=4096, bias=False)
                  (v_proj): Linear(in_features=4096, out_features=4096, bias=False)
                  (o_proj): Linear(in_features=4096, out_features=4096, bias=False)
                  (rotary_emb): LlamaRotaryEmbedding()
                )
                (mlp): LlamaMLP(
                  (gate_proj): Linear(in_features=4096, out_features=11008, bias=False)
                  (up_proj): Linear(in_features=4096, out_features=11008, bias=False)
                  (down_proj): Linear(in_features=11008, out_features=4096, bias=False)
                  (act_fn): SiLUActivation()
                )
                (input_layernorm): LlamaRMSNorm()
                (post_attention_layernorm): LlamaRMSNorm()
              )
            )
          )
          (5): FullyShardedDataParallel(
            (_fsdp_wrapped_module): FlattenParamsWrapper(
              (_fpw_module): LlamaDecoderLayer(
                (self_attn): LlamaAttention(
                  (q_proj): Linear(in_features=4096, out_features=4096, bias=False)
                  (k_proj): Linear(in_features=4096, out_features=4096, bias=False)
                  (v_proj): Linear(in_features=4096, out_features=4096, bias=False)
                  (o_proj): Linear(in_features=4096, out_features=4096, bias=False)
                  (rotary_emb): LlamaRotaryEmbedding()
                )
                (mlp): LlamaMLP(
                  (gate_proj): Linear(in_features=4096, out_features=11008, bias=False)
                  (up_proj): Linear(in_features=4096, out_features=11008, bias=False)
                  (down_proj): Linear(in_features=11008, out_features=4096, bias=False)
                  (act_fn): SiLUActivation()
                )
                (input_layernorm): LlamaRMSNorm()
                (post_attention_layernorm): LlamaRMSNorm()
              )
            )
          )
          (6): FullyShardedDataParallel(
            (_fsdp_wrapped_module): FlattenParamsWrapper(
              (_fpw_module): LlamaDecoderLayer(
                (self_attn): LlamaAttention(
                  (q_proj): Linear(in_features=4096, out_features=4096, bias=False)
                  (k_proj): Linear(in_features=4096, out_features=4096, bias=False)
                  (v_proj): Linear(in_features=4096, out_features=4096, bias=False)
                  (o_proj): Linear(in_features=4096, out_features=4096, bias=False)
                  (rotary_emb): LlamaRotaryEmbedding()
                )
                (mlp): LlamaMLP(
                  (gate_proj): Linear(in_features=4096, out_features=11008, bias=False)
                  (up_proj): Linear(in_features=4096, out_features=11008, bias=False)
                  (down_proj): Linear(in_features=11008, out_features=4096, bias=False)
                  (act_fn): SiLUActivation()
                )
                (input_layernorm): LlamaRMSNorm()
                (post_attention_layernorm): LlamaRMSNorm()
              )
            )
          )
          (7): FullyShardedDataParallel(
            (_fsdp_wrapped_module): FlattenParamsWrapper(
              (_fpw_module): LlamaDecoderLayer(
                (self_attn): LlamaAttention(
                  (q_proj): Linear(in_features=4096, out_features=4096, bias=False)
                  (k_proj): Linear(in_features=4096, out_features=4096, bias=False)
                  (v_proj): Linear(in_features=4096, out_features=4096, bias=False)
                  (o_proj): Linear(in_features=4096, out_features=4096, bias=False)
                  (rotary_emb): LlamaRotaryEmbedding()
                )
                (mlp): LlamaMLP(
                  (gate_proj): Linear(in_features=4096, out_features=11008, bias=False)
                  (up_proj): Linear(in_features=4096, out_features=11008, bias=False)
                  (down_proj): Linear(in_features=11008, out_features=4096, bias=False)
                  (act_fn): SiLUActivation()
                )
                (input_layernorm): LlamaRMSNorm()
                (post_attention_layernorm): LlamaRMSNorm()
              )
            )
          )
          (8): FullyShardedDataParallel(
            (_fsdp_wrapped_module): FlattenParamsWrapper(
              (_fpw_module): LlamaDecoderLayer(
                (self_attn): LlamaAttention(
                  (q_proj): Linear(in_features=4096, out_features=4096, bias=False)
                  (k_proj): Linear(in_features=4096, out_features=4096, bias=False)
                  (v_proj): Linear(in_features=4096, out_features=4096, bias=False)
                  (o_proj): Linear(in_features=4096, out_features=4096, bias=False)
                  (rotary_emb): LlamaRotaryEmbedding()
                )
                (mlp): LlamaMLP(
                  (gate_proj): Linear(in_features=4096, out_features=11008, bias=False)
                  (up_proj): Linear(in_features=4096, out_features=11008, bias=False)
                  (down_proj): Linear(in_features=11008, out_features=4096, bias=False)
                  (act_fn): SiLUActivation()
                )
                (input_layernorm): LlamaRMSNorm()
                (post_attention_layernorm): LlamaRMSNorm()
              )
            )
          )
          (9): FullyShardedDataParallel(
            (_fsdp_wrapped_module): FlattenParamsWrapper(
              (_fpw_module): LlamaDecoderLayer(
                (self_attn): LlamaAttention(
                  (q_proj): Linear(in_features=4096, out_features=4096, bias=False)
                  (k_proj): Linear(in_features=4096, out_features=4096, bias=False)
                  (v_proj): Linear(in_features=4096, out_features=4096, bias=False)
                  (o_proj): Linear(in_features=4096, out_features=4096, bias=False)
                  (rotary_emb): LlamaRotaryEmbedding()
                )
                (mlp): LlamaMLP(
                  (gate_proj): Linear(in_features=4096, out_features=11008, bias=False)
                  (up_proj): Linear(in_features=4096, out_features=11008, bias=False)
                  (down_proj): Linear(in_features=11008, out_features=4096, bias=False)
                  (act_fn): SiLUActivation()
                )
                (input_layernorm): LlamaRMSNorm()
                (post_attention_layernorm): LlamaRMSNorm()
              )
            )
          )
          (10): FullyShardedDataParallel(
            (_fsdp_wrapped_module): FlattenParamsWrapper(
              (_fpw_module): LlamaDecoderLayer(
                (self_attn): LlamaAttention(
                  (q_proj): Linear(in_features=4096, out_features=4096, bias=False)
                  (k_proj): Linear(in_features=4096, out_features=4096, bias=False)
                  (v_proj): Linear(in_features=4096, out_features=4096, bias=False)
                  (o_proj): Linear(in_features=4096, out_features=4096, bias=False)
                  (rotary_emb): LlamaRotaryEmbedding()
                )
                (mlp): LlamaMLP(
                  (gate_proj): Linear(in_features=4096, out_features=11008, bias=False)
                  (up_proj): Linear(in_features=4096, out_features=11008, bias=False)
                  (down_proj): Linear(in_features=11008, out_features=4096, bias=False)
                  (act_fn): SiLUActivation()
                )
                (input_layernorm): LlamaRMSNorm()
                (post_attention_layernorm): LlamaRMSNorm()
              )
            )
          )
          (11): FullyShardedDataParallel(
            (_fsdp_wrapped_module): FlattenParamsWrapper(
              (_fpw_module): LlamaDecoderLayer(
                (self_attn): LlamaAttention(
                  (q_proj): Linear(in_features=4096, out_features=4096, bias=False)
                  (k_proj): Linear(in_features=4096, out_features=4096, bias=False)
                  (v_proj): Linear(in_features=4096, out_features=4096, bias=False)
                  (o_proj): Linear(in_features=4096, out_features=4096, bias=False)
                  (rotary_emb): LlamaRotaryEmbedding()
                )
                (mlp): LlamaMLP(
                  (gate_proj): Linear(in_features=4096, out_features=11008, bias=False)
                  (up_proj): Linear(in_features=4096, out_features=11008, bias=False)
                  (down_proj): Linear(in_features=11008, out_features=4096, bias=False)
                  (act_fn): SiLUActivation()
                )
                (input_layernorm): LlamaRMSNorm()
                (post_attention_layernorm): LlamaRMSNorm()
              )
            )
          )
          (12): FullyShardedDataParallel(
            (_fsdp_wrapped_module): FlattenParamsWrapper(
              (_fpw_module): LlamaDecoderLayer(
                (self_attn): LlamaAttention(
                  (q_proj): Linear(in_features=4096, out_features=4096, bias=False)
                  (k_proj): Linear(in_features=4096, out_features=4096, bias=False)
                  (v_proj): Linear(in_features=4096, out_features=4096, bias=False)
                  (o_proj): Linear(in_features=4096, out_features=4096, bias=False)
                  (rotary_emb): LlamaRotaryEmbedding()
                )
                (mlp): LlamaMLP(
                  (gate_proj): Linear(in_features=4096, out_features=11008, bias=False)
                  (up_proj): Linear(in_features=4096, out_features=11008, bias=False)
                  (down_proj): Linear(in_features=11008, out_features=4096, bias=False)
                  (act_fn): SiLUActivation()
                )
                (input_layernorm): LlamaRMSNorm()
                (post_attention_layernorm): LlamaRMSNorm()
              )
            )
          )
          (13): FullyShardedDataParallel(
            (_fsdp_wrapped_module): FlattenParamsWrapper(
              (_fpw_module): LlamaDecoderLayer(
                (self_attn): LlamaAttention(
                  (q_proj): Linear(in_features=4096, out_features=4096, bias=False)
                  (k_proj): Linear(in_features=4096, out_features=4096, bias=False)
                  (v_proj): Linear(in_features=4096, out_features=4096, bias=False)
                  (o_proj): Linear(in_features=4096, out_features=4096, bias=False)
                  (rotary_emb): LlamaRotaryEmbedding()
                )
                (mlp): LlamaMLP(
                  (gate_proj): Linear(in_features=4096, out_features=11008, bias=False)
                  (up_proj): Linear(in_features=4096, out_features=11008, bias=False)
                  (down_proj): Linear(in_features=11008, out_features=4096, bias=False)
                  (act_fn): SiLUActivation()
                )
                (input_layernorm): LlamaRMSNorm()
                (post_attention_layernorm): LlamaRMSNorm()
              )
            )
          )
          (14): FullyShardedDataParallel(
            (_fsdp_wrapped_module): FlattenParamsWrapper(
              (_fpw_module): LlamaDecoderLayer(
                (self_attn): LlamaAttention(
                  (q_proj): Linear(in_features=4096, out_features=4096, bias=False)
                  (k_proj): Linear(in_features=4096, out_features=4096, bias=False)
                  (v_proj): Linear(in_features=4096, out_features=4096, bias=False)
                  (o_proj): Linear(in_features=4096, out_features=4096, bias=False)
                  (rotary_emb): LlamaRotaryEmbedding()
                )
                (mlp): LlamaMLP(
                  (gate_proj): Linear(in_features=4096, out_features=11008, bias=False)
                  (up_proj): Linear(in_features=4096, out_features=11008, bias=False)
                  (down_proj): Linear(in_features=11008, out_features=4096, bias=False)
                  (act_fn): SiLUActivation()
                )
                (input_layernorm): LlamaRMSNorm()
                (post_attention_layernorm): LlamaRMSNorm()
              )
            )
          )
          (15): FullyShardedDataParallel(
            (_fsdp_wrapped_module): FlattenParamsWrapper(
              (_fpw_module): LlamaDecoderLayer(
                (self_attn): LlamaAttention(
                  (q_proj): Linear(in_features=4096, out_features=4096, bias=False)
                  (k_proj): Linear(in_features=4096, out_features=4096, bias=False)
                  (v_proj): Linear(in_features=4096, out_features=4096, bias=False)
                  (o_proj): Linear(in_features=4096, out_features=4096, bias=False)
                  (rotary_emb): LlamaRotaryEmbedding()
                )
                (mlp): LlamaMLP(
                  (gate_proj): Linear(in_features=4096, out_features=11008, bias=False)
                  (up_proj): Linear(in_features=4096, out_features=11008, bias=False)
                  (down_proj): Linear(in_features=11008, out_features=4096, bias=False)
                  (act_fn): SiLUActivation()
                )
                (input_layernorm): LlamaRMSNorm()
                (post_attention_layernorm): LlamaRMSNorm()
              )
            )
          )
          (16): FullyShardedDataParallel(
            (_fsdp_wrapped_module): FlattenParamsWrapper(
              (_fpw_module): LlamaDecoderLayer(
                (self_attn): LlamaAttention(
                  (q_proj): Linear(in_features=4096, out_features=4096, bias=False)
                  (k_proj): Linear(in_features=4096, out_features=4096, bias=False)
                  (v_proj): Linear(in_features=4096, out_features=4096, bias=False)
                  (o_proj): Linear(in_features=4096, out_features=4096, bias=False)
                  (rotary_emb): LlamaRotaryEmbedding()
                )
                (mlp): LlamaMLP(
                  (gate_proj): Linear(in_features=4096, out_features=11008, bias=False)
                  (up_proj): Linear(in_features=4096, out_features=11008, bias=False)
                  (down_proj): Linear(in_features=11008, out_features=4096, bias=False)
                  (act_fn): SiLUActivation()
                )
                (input_layernorm): LlamaRMSNorm()
                (post_attention_layernorm): LlamaRMSNorm()
              )
            )
          )
          (17): FullyShardedDataParallel(
            (_fsdp_wrapped_module): FlattenParamsWrapper(
              (_fpw_module): LlamaDecoderLayer(
                (self_attn): LlamaAttention(
                  (q_proj): Linear(in_features=4096, out_features=4096, bias=False)
                  (k_proj): Linear(in_features=4096, out_features=4096, bias=False)
                  (v_proj): Linear(in_features=4096, out_features=4096, bias=False)
                  (o_proj): Linear(in_features=4096, out_features=4096, bias=False)
                  (rotary_emb): LlamaRotaryEmbedding()
                )
                (mlp): LlamaMLP(
                  (gate_proj): Linear(in_features=4096, out_features=11008, bias=False)
                  (up_proj): Linear(in_features=4096, out_features=11008, bias=False)
                  (down_proj): Linear(in_features=11008, out_features=4096, bias=False)
                  (act_fn): SiLUActivation()
                )
                (input_layernorm): LlamaRMSNorm()
                (post_attention_layernorm): LlamaRMSNorm()
              )
            )
          )
          (18): FullyShardedDataParallel(
            (_fsdp_wrapped_module): FlattenParamsWrapper(
              (_fpw_module): LlamaDecoderLayer(
                (self_attn): LlamaAttention(
                  (q_proj): Linear(in_features=4096, out_features=4096, bias=False)
                  (k_proj): Linear(in_features=4096, out_features=4096, bias=False)
                  (v_proj): Linear(in_features=4096, out_features=4096, bias=False)
                  (o_proj): Linear(in_features=4096, out_features=4096, bias=False)
                  (rotary_emb): LlamaRotaryEmbedding()
                )
                (mlp): LlamaMLP(
                  (gate_proj): Linear(in_features=4096, out_features=11008, bias=False)
                  (up_proj): Linear(in_features=4096, out_features=11008, bias=False)
                  (down_proj): Linear(in_features=11008, out_features=4096, bias=False)
                  (act_fn): SiLUActivation()
                )
                (input_layernorm): LlamaRMSNorm()
                (post_attention_layernorm): LlamaRMSNorm()
              )
            )
          )
          (19): FullyShardedDataParallel(
            (_fsdp_wrapped_module): FlattenParamsWrapper(
              (_fpw_module): LlamaDecoderLayer(
                (self_attn): LlamaAttention(
                  (q_proj): Linear(in_features=4096, out_features=4096, bias=False)
                  (k_proj): Linear(in_features=4096, out_features=4096, bias=False)
                  (v_proj): Linear(in_features=4096, out_features=4096, bias=False)
                  (o_proj): Linear(in_features=4096, out_features=4096, bias=False)
                  (rotary_emb): LlamaRotaryEmbedding()
                )
                (mlp): LlamaMLP(
                  (gate_proj): Linear(in_features=4096, out_features=11008, bias=False)
                  (up_proj): Linear(in_features=4096, out_features=11008, bias=False)
                  (down_proj): Linear(in_features=11008, out_features=4096, bias=False)
                  (act_fn): SiLUActivation()
                )
                (input_layernorm): LlamaRMSNorm()
                (post_attention_layernorm): LlamaRMSNorm()
              )
            )
          )
          (20): FullyShardedDataParallel(
            (_fsdp_wrapped_module): FlattenParamsWrapper(
              (_fpw_module): LlamaDecoderLayer(
                (self_attn): LlamaAttention(
                  (q_proj): Linear(in_features=4096, out_features=4096, bias=False)
                  (k_proj): Linear(in_features=4096, out_features=4096, bias=False)
                  (v_proj): Linear(in_features=4096, out_features=4096, bias=False)
                  (o_proj): Linear(in_features=4096, out_features=4096, bias=False)
                  (rotary_emb): LlamaRotaryEmbedding()
                )
                (mlp): LlamaMLP(
                  (gate_proj): Linear(in_features=4096, out_features=11008, bias=False)
                  (up_proj): Linear(in_features=4096, out_features=11008, bias=False)
                  (down_proj): Linear(in_features=11008, out_features=4096, bias=False)
                  (act_fn): SiLUActivation()
                )
                (input_layernorm): LlamaRMSNorm()
                (post_attention_layernorm): LlamaRMSNorm()
              )
            )
          )
          (21): FullyShardedDataParallel(
            (_fsdp_wrapped_module): FlattenParamsWrapper(
              (_fpw_module): LlamaDecoderLayer(
                (self_attn): LlamaAttention(
                  (q_proj): Linear(in_features=4096, out_features=4096, bias=False)
                  (k_proj): Linear(in_features=4096, out_features=4096, bias=False)
                  (v_proj): Linear(in_features=4096, out_features=4096, bias=False)
                  (o_proj): Linear(in_features=4096, out_features=4096, bias=False)
                  (rotary_emb): LlamaRotaryEmbedding()
                )
                (mlp): LlamaMLP(
                  (gate_proj): Linear(in_features=4096, out_features=11008, bias=False)
                  (up_proj): Linear(in_features=4096, out_features=11008, bias=False)
                  (down_proj): Linear(in_features=11008, out_features=4096, bias=False)
                  (act_fn): SiLUActivation()
                )
                (input_layernorm): LlamaRMSNorm()
                (post_attention_layernorm): LlamaRMSNorm()
              )
            )
          )
          (22): FullyShardedDataParallel(
            (_fsdp_wrapped_module): FlattenParamsWrapper(
              (_fpw_module): LlamaDecoderLayer(
                (self_attn): LlamaAttention(
                  (q_proj): Linear(in_features=4096, out_features=4096, bias=False)
                  (k_proj): Linear(in_features=4096, out_features=4096, bias=False)
                  (v_proj): Linear(in_features=4096, out_features=4096, bias=False)
                  (o_proj): Linear(in_features=4096, out_features=4096, bias=False)
                  (rotary_emb): LlamaRotaryEmbedding()
                )
                (mlp): LlamaMLP(
                  (gate_proj): Linear(in_features=4096, out_features=11008, bias=False)
                  (up_proj): Linear(in_features=4096, out_features=11008, bias=False)
                  (down_proj): Linear(in_features=11008, out_features=4096, bias=False)
                  (act_fn): SiLUActivation()
                )
                (input_layernorm): LlamaRMSNorm()
                (post_attention_layernorm): LlamaRMSNorm()
              )
            )
          )
          (23): FullyShardedDataParallel(
            (_fsdp_wrapped_module): FlattenParamsWrapper(
              (_fpw_module): LlamaDecoderLayer(
                (self_attn): LlamaAttention(
                  (q_proj): Linear(in_features=4096, out_features=4096, bias=False)
                  (k_proj): Linear(in_features=4096, out_features=4096, bias=False)
                  (v_proj): Linear(in_features=4096, out_features=4096, bias=False)
                  (o_proj): Linear(in_features=4096, out_features=4096, bias=False)
                  (rotary_emb): LlamaRotaryEmbedding()
                )
                (mlp): LlamaMLP(
                  (gate_proj): Linear(in_features=4096, out_features=11008, bias=False)
                  (up_proj): Linear(in_features=4096, out_features=11008, bias=False)
                  (down_proj): Linear(in_features=11008, out_features=4096, bias=False)
                  (act_fn): SiLUActivation()
                )
                (input_layernorm): LlamaRMSNorm()
                (post_attention_layernorm): LlamaRMSNorm()
              )
            )
          )
          (24): FullyShardedDataParallel(
            (_fsdp_wrapped_module): FlattenParamsWrapper(
              (_fpw_module): LlamaDecoderLayer(
                (self_attn): LlamaAttention(
                  (q_proj): Linear(in_features=4096, out_features=4096, bias=False)
                  (k_proj): Linear(in_features=4096, out_features=4096, bias=False)
                  (v_proj): Linear(in_features=4096, out_features=4096, bias=False)
                  (o_proj): Linear(in_features=4096, out_features=4096, bias=False)
                  (rotary_emb): LlamaRotaryEmbedding()
                )
                (mlp): LlamaMLP(
                  (gate_proj): Linear(in_features=4096, out_features=11008, bias=False)
                  (up_proj): Linear(in_features=4096, out_features=11008, bias=False)
                  (down_proj): Linear(in_features=11008, out_features=4096, bias=False)
                  (act_fn): SiLUActivation()
                )
                (input_layernorm): LlamaRMSNorm()
                (post_attention_layernorm): LlamaRMSNorm()
              )
            )
          )
          (25): FullyShardedDataParallel(
            (_fsdp_wrapped_module): FlattenParamsWrapper(
              (_fpw_module): LlamaDecoderLayer(
                (self_attn): LlamaAttention(
                  (q_proj): Linear(in_features=4096, out_features=4096, bias=False)
                  (k_proj): Linear(in_features=4096, out_features=4096, bias=False)
                  (v_proj): Linear(in_features=4096, out_features=4096, bias=False)
                  (o_proj): Linear(in_features=4096, out_features=4096, bias=False)
                  (rotary_emb): LlamaRotaryEmbedding()
                )
                (mlp): LlamaMLP(
                  (gate_proj): Linear(in_features=4096, out_features=11008, bias=False)
                  (up_proj): Linear(in_features=4096, out_features=11008, bias=False)
                  (down_proj): Linear(in_features=11008, out_features=4096, bias=False)
                  (act_fn): SiLUActivation()
                )
                (input_layernorm): LlamaRMSNorm()
                (post_attention_layernorm): LlamaRMSNorm()
              )
            )
          )
          (26): FullyShardedDataParallel(
            (_fsdp_wrapped_module): FlattenParamsWrapper(
              (_fpw_module): LlamaDecoderLayer(
                (self_attn): LlamaAttention(
                  (q_proj): Linear(in_features=4096, out_features=4096, bias=False)
                  (k_proj): Linear(in_features=4096, out_features=4096, bias=False)
                  (v_proj): Linear(in_features=4096, out_features=4096, bias=False)
                  (o_proj): Linear(in_features=4096, out_features=4096, bias=False)
                  (rotary_emb): LlamaRotaryEmbedding()
                )
                (mlp): LlamaMLP(
                  (gate_proj): Linear(in_features=4096, out_features=11008, bias=False)
                  (up_proj): Linear(in_features=4096, out_features=11008, bias=False)
                  (down_proj): Linear(in_features=11008, out_features=4096, bias=False)
                  (act_fn): SiLUActivation()
                )
                (input_layernorm): LlamaRMSNorm()
                (post_attention_layernorm): LlamaRMSNorm()
              )
            )
          )
          (27): FullyShardedDataParallel(
            (_fsdp_wrapped_module): FlattenParamsWrapper(
              (_fpw_module): LlamaDecoderLayer(
                (self_attn): LlamaAttention(
                  (q_proj): Linear(in_features=4096, out_features=4096, bias=False)
                  (k_proj): Linear(in_features=4096, out_features=4096, bias=False)
                  (v_proj): Linear(in_features=4096, out_features=4096, bias=False)
                  (o_proj): Linear(in_features=4096, out_features=4096, bias=False)
                  (rotary_emb): LlamaRotaryEmbedding()
                )
                (mlp): LlamaMLP(
                  (gate_proj): Linear(in_features=4096, out_features=11008, bias=False)
                  (up_proj): Linear(in_features=4096, out_features=11008, bias=False)
                  (down_proj): Linear(in_features=11008, out_features=4096, bias=False)
                  (act_fn): SiLUActivation()
                )
                (input_layernorm): LlamaRMSNorm()
                (post_attention_layernorm): LlamaRMSNorm()
              )
            )
          )
          (28): FullyShardedDataParallel(
            (_fsdp_wrapped_module): FlattenParamsWrapper(
              (_fpw_module): LlamaDecoderLayer(
                (self_attn): LlamaAttention(
                  (q_proj): Linear(in_features=4096, out_features=4096, bias=False)
                  (k_proj): Linear(in_features=4096, out_features=4096, bias=False)
                  (v_proj): Linear(in_features=4096, out_features=4096, bias=False)
                  (o_proj): Linear(in_features=4096, out_features=4096, bias=False)
                  (rotary_emb): LlamaRotaryEmbedding()
                )
                (mlp): LlamaMLP(
                  (gate_proj): Linear(in_features=4096, out_features=11008, bias=False)
                  (up_proj): Linear(in_features=4096, out_features=11008, bias=False)
                  (down_proj): Linear(in_features=11008, out_features=4096, bias=False)
                  (act_fn): SiLUActivation()
                )
                (input_layernorm): LlamaRMSNorm()
                (post_attention_layernorm): LlamaRMSNorm()
              )
            )
          )
          (29): FullyShardedDataParallel(
            (_fsdp_wrapped_module): FlattenParamsWrapper(
              (_fpw_module): LlamaDecoderLayer(
                (self_attn): LlamaAttention(
                  (q_proj): Linear(in_features=4096, out_features=4096, bias=False)
                  (k_proj): Linear(in_features=4096, out_features=4096, bias=False)
                  (v_proj): Linear(in_features=4096, out_features=4096, bias=False)
                  (o_proj): Linear(in_features=4096, out_features=4096, bias=False)
                  (rotary_emb): LlamaRotaryEmbedding()
                )
                (mlp): LlamaMLP(
                  (gate_proj): Linear(in_features=4096, out_features=11008, bias=False)
                  (up_proj): Linear(in_features=4096, out_features=11008, bias=False)
                  (down_proj): Linear(in_features=11008, out_features=4096, bias=False)
                  (act_fn): SiLUActivation()
                )
                (input_layernorm): LlamaRMSNorm()
                (post_attention_layernorm): LlamaRMSNorm()
              )
            )
          )
          (30): FullyShardedDataParallel(
            (_fsdp_wrapped_module): FlattenParamsWrapper(
              (_fpw_module): LlamaDecoderLayer(
                (self_attn): LlamaAttention(
                  (q_proj): Linear(in_features=4096, out_features=4096, bias=False)
                  (k_proj): Linear(in_features=4096, out_features=4096, bias=False)
                  (v_proj): Linear(in_features=4096, out_features=4096, bias=False)
                  (o_proj): Linear(in_features=4096, out_features=4096, bias=False)
                  (rotary_emb): LlamaRotaryEmbedding()
                )
                (mlp): LlamaMLP(
                  (gate_proj): Linear(in_features=4096, out_features=11008, bias=False)
                  (up_proj): Linear(in_features=4096, out_features=11008, bias=False)
                  (down_proj): Linear(in_features=11008, out_features=4096, bias=False)
                  (act_fn): SiLUActivation()
                )
                (input_layernorm): LlamaRMSNorm()
                (post_attention_layernorm): LlamaRMSNorm()
              )
            )
          )
          (31): FullyShardedDataParallel(
            (_fsdp_wrapped_module): FlattenParamsWrapper(
              (_fpw_module): LlamaDecoderLayer(
                (self_attn): LlamaAttention(
                  (q_proj): Linear(in_features=4096, out_features=4096, bias=False)
                  (k_proj): Linear(in_features=4096, out_features=4096, bias=False)
                  (v_proj): Linear(in_features=4096, out_features=4096, bias=False)
                  (o_proj): Linear(in_features=4096, out_features=4096, bias=False)
                  (rotary_emb): LlamaRotaryEmbedding()
                )
                (mlp): LlamaMLP(
                  (gate_proj): Linear(in_features=4096, out_features=11008, bias=False)
                  (up_proj): Linear(in_features=4096, out_features=11008, bias=False)
                  (down_proj): Linear(in_features=11008, out_features=4096, bias=False)
                  (act_fn): SiLUActivation()
                )
                (input_layernorm): LlamaRMSNorm()
                (post_attention_layernorm): LlamaRMSNorm()
              )
            )
          )
        )
        (norm): LlamaRMSNorm()
      )
      (lm_head): Linear(in_features=4096, out_features=32001, bias=False)
    )
  )
)
/home/lanxiang/anaconda3/envs/llm_train/lib/python3.9/site-packages/torch/distributed/distributed_c10d.py:2387: UserWarning: torch.distributed._all_gather_base is a private function and will be deprecated. Please use torch.distributed.all_gather_into_tensor instead.
  warnings.warn(
11/15/2023 21:16:26 - INFO - __main__ -  ------------------- zero-shot accuracy reported above! -------------------
…
